…
                                     vocab_sz: 30522
                                     vonly: True
                                     warmup: 0.1
                                     weight_classes: 1
INFO - 04/12/22 19:37:02 - 0:00:00 - DataParallel(
                                       (module): MultiprojectionMMTransformerGMUClf(
                                         (enc): BertEncoder(
                                           (bert): BertModel(
                                             (embeddings): BertEmbeddings(
                                               (word_embeddings): Embedding(30522, 768, padding_idx=0)
                                               (position_embeddings): Embedding(512, 768)
                                               (token_type_embeddings): Embedding(2, 768)
                                               (LayerNorm): LayerNorm((768,), eps=1e-12, elementwise_affine=True)
                                               (dropout): Dropout(p=0.1, inplace=False)
                                             )
                                             (encoder): BertEncoder(
                                               (layer): ModuleList(
                                                 (0): BertLayer(
                                                   (attention): BertAttention(
                                                     (self): BertSelfAttention(
                                                       (query): Linear(in_features=768, out_features=768, bias=True)
                                                       (key): Linear(in_features=768, out_features=768, bias=True)
                                                       (value): Linear(in_features=768, out_features=768, bias=True)
                                                       (dropout): Dropout(p=0.1, inplace=False)
                                                     )
                                                     (output): BertSelfOutput(
                                                       (dense): Linear(in_features=768, out_features=768, bias=True)
                                                       (LayerNorm): LayerNorm((768,), eps=1e-12, elementwise_affine=True)
                                                       (dropout): Dropout(p=0.1, inplace=False)
                                                       (attention_text_task_adapters): ModuleDict()
                                                       (adapter_fusion_layer): ModuleDict()
                                                       (attention_text_lang_adapters): ModuleDict()
                                                     )
                                                   )
                                                   (intermediate): BertIntermediate(
                                                     (dense): Linear(in_features=768, out_features=3072, bias=True)
                                                   )
                                                   (output): BertOutput(
                                                     (dense): Linear(in_features=3072, out_features=768, bias=True)
                                                     (LayerNorm): LayerNorm((768,), eps=1e-12, elementwise_affine=True)
                                                     (dropout): Dropout(p=0.1, inplace=False)
                                                     (adapter_fusion_layer): ModuleDict()
                                                     (layer_text_task_adapters): ModuleDict()
                                                     (layer_text_lang_adapters): ModuleDict()
                                                   )
                                                 )
                                                 (1): BertLayer(
                                                   (attention): BertAttention(
                                                     (self): BertSelfAttention(
                                                       (query): Linear(in_features=768, out_features=768, bias=True)
                                                       (key): Linear(in_features=768, out_features=768, bias=True)
                                                       (value): Linear(in_features=768, out_features=768, bias=True)
                                                       (dropout): Dropout(p=0.1, inplace=False)
                                                     )
                                                     (output): BertSelfOutput(
                                                       (dense): Linear(in_features=768, out_features=768, bias=True)
                                                       (LayerNorm): LayerNorm((768,), eps=1e-12, elementwise_affine=True)
                                                       (dropout): Dropout(p=0.1, inplace=False)
                                                       (attention_text_task_adapters): ModuleDict()
                                                       (adapter_fusion_layer): ModuleDict()
                                                       (attention_text_lang_adapters): ModuleDict()
                                                     )
                                                   )
                                                   (intermediate): BertIntermediate(
                                                     (dense): Linear(in_features=768, out_features=3072, bias=True)
                                                   )
                                                   (output): BertOutput(
                                                     (dense): Linear(in_features=3072, out_features=768, bias=True)
                                                     (LayerNorm): LayerNorm((768,), eps=1e-12, elementwise_affine=True)
                                                     (dropout): Dropout(p=0.1, inplace=False)
                                                     (adapter_fusion_layer): ModuleDict()
                                                     (layer_text_task_adapters): ModuleDict()
                                                     (layer_text_lang_adapters): ModuleDict()
                                                   )
                                                 )
                                                 (2): BertLayer(
                                                   (attention): BertAttention(
                                                     (self): BertSelfAttention(
                                                       (query): Linear(in_features=768, out_features=768, bias=True)
                                                       (key): Linear(in_features=768, out_features=768, bias=True)
                                                       (value): Linear(in_features=768, out_features=768, bias=True)
                                                       (dropout): Dropout(p=0.1, inplace=False)
                                                     )
                                                     (output): BertSelfOutput(
                                                       (dense): Linear(in_features=768, out_features=768, bias=True)
                                                       (LayerNorm): LayerNorm((768,), eps=1e-12, elementwise_affine=True)
                                                       (dropout): Dropout(p=0.1, inplace=False)
                                                       (attention_text_task_adapters): ModuleDict()
                                                       (adapter_fusion_layer): ModuleDict()
                                                       (attention_text_lang_adapters): ModuleDict()
                                                     )
                                                   )
                                                   (intermediate): BertIntermediate(
                                                     (dense): Linear(in_features=768, out_features=3072, bias=True)
                                                   )
                                                   (output): BertOutput(
                                                     (dense): Linear(in_features=3072, out_features=768, bias=True)
                                                     (LayerNorm): LayerNorm((768,), eps=1e-12, elementwise_affine=True)
                                                     (dropout): Dropout(p=0.1, inplace=False)
                                                     (adapter_fusion_layer): ModuleDict()
                                                     (layer_text_task_adapters): ModuleDict()
                                                     (layer_text_lang_adapters): ModuleDict()
                                                   )
                                                 )
                                                 (3): BertLayer(
                                                   (attention): BertAttention(
                                                     (self): BertSelfAttention(
                                                       (query): Linear(in_features=768, out_features=768, bias=True)
                                                       (key): Linear(in_features=768, out_features=768, bias=True)
                                                       (value): Linear(in_features=768, out_features=768, bias=True)
                                                       (dropout): Dropout(p=0.1, inplace=False)
                                                     )
                                                     (output): BertSelfOutput(
                                                       (dense): Linear(in_features=768, out_features=768, bias=True)
                                                       (LayerNorm): LayerNorm((768,), eps=1e-12, elementwise_affine=True)
                                                       (dropout): Dropout(p=0.1, inplace=False)
                                                       (attention_text_task_adapters): ModuleDict()
                                                       (adapter_fusion_layer): ModuleDict()
                                                       (attention_text_lang_adapters): ModuleDict()
                                                     )
                                                   )
                                                   (intermediate): BertIntermediate(
                                                     (dense): Linear(in_features=768, out_features=3072, bias=True)
                                                   )
                                                   (output): BertOutput(
                                                     (dense): Linear(in_features=3072, out_features=768, bias=True)
                                                     (LayerNorm): LayerNorm((768,), eps=1e-12, elementwise_affine=True)
                                                     (dropout): Dropout(p=0.1, inplace=False)
                                                     (adapter_fusion_layer): ModuleDict()
                                                     (layer_text_task_adapters): ModuleDict()
                                                     (layer_text_lang_adapters): ModuleDict()
                                                   )
                                                 )
                                                 (4): BertLayer(
                                                   (attention): BertAttention(
                                                     (self): BertSelfAttention(
                                                       (query): Linear(in_features=768, out_features=768, bias=True)
                                                       (key): Linear(in_features=768, out_features=768, bias=True)
                                                       (value): Linear(in_features=768, out_features=768, bias=True)
                                                       (dropout): Dropout(p=0.1, inplace=False)
                                                     )
                                                     (output): BertSelfOutput(
                                                       (dense): Linear(in_features=768, out_features=768, bias=True)
                                                       (LayerNorm): LayerNorm((768,), eps=1e-12, elementwise_affine=True)
                                                       (dropout): Dropout(p=0.1, inplace=False)
                                                       (attention_text_task_adapters): ModuleDict()
                                                       (adapter_fusion_layer): ModuleDict()
                                                       (attention_text_lang_adapters): ModuleDict()
                                                     )
                                                   )
                                                   (intermediate): BertIntermediate(
                                                     (dense): Linear(in_features=768, out_features=3072, bias=True)
                                                   )
                                                   (output): BertOutput(
                                                     (dense): Linear(in_features=3072, out_features=768, bias=True)
                                                     (LayerNorm): LayerNorm((768,), eps=1e-12, elementwise_affine=True)
                                                     (dropout): Dropout(p=0.1, inplace=False)
                                                     (adapter_fusion_layer): ModuleDict()
                                                     (layer_text_task_adapters): ModuleDict()
                                                     (layer_text_lang_adapters): ModuleDict()
                                                   )
                                                 )
                                                 (5): BertLayer(
                                                   (attention): BertAttention(
                                                     (self): BertSelfAttention(
                                                       (query): Linear(in_features=768, out_features=768, bias=True)
                                                       (key): Linear(in_features=768, out_features=768, bias=True)
                                                       (value): Linear(in_features=768, out_features=768, bias=True)
                                                       (dropout): Dropout(p=0.1, inplace=False)
                                                     )
                                                     (output): BertSelfOutput(
                                                       (dense): Linear(in_features=768, out_features=768, bias=True)
                                                       (LayerNorm): LayerNorm((768,), eps=1e-12, elementwise_affine=True)
                                                       (dropout): Dropout(p=0.1, inplace=False)
                                                       (attention_text_task_adapters): ModuleDict()
                                                       (adapter_fusion_layer): ModuleDict()
                                                       (attention_text_lang_adapters): ModuleDict()
                                                     )
                                                   )
                                                   (intermediate): BertIntermediate(
                                                     (dense): Linear(in_features=768, out_features=3072, bias=True)
                                                   )
                                                   (output): BertOutput(
                                                     (dense): Linear(in_features=3072, out_features=768, bias=True)
                                                     (LayerNorm): LayerNorm((768,), eps=1e-12, elementwise_affine=True)
                                                     (dropout): Dropout(p=0.1, inplace=False)
                                                     (adapter_fusion_layer): ModuleDict()
                                                     (layer_text_task_adapters): ModuleDict()
                                                     (layer_text_lang_adapters): ModuleDict()
                                                   )
                                                 )
                                                 (6): BertLayer(
                                                   (attention): BertAttention(
                                                     (self): BertSelfAttention(
                                                       (query): Linear(in_features=768, out_features=768, bias=True)
                                                       (key): Linear(in_features=768, out_features=768, bias=True)
                                                       (value): Linear(in_features=768, out_features=768, bias=True)
                                                       (dropout): Dropout(p=0.1, inplace=False)
                                                     )
                                                     (output): BertSelfOutput(
                                                       (dense): Linear(in_features=768, out_features=768, bias=True)
                                                       (LayerNorm): LayerNorm((768,), eps=1e-12, elementwise_affine=True)
                                                       (dropout): Dropout(p=0.1, inplace=False)
                                                       (attention_text_task_adapters): ModuleDict()
                                                       (adapter_fusion_layer): ModuleDict()
                                                       (attention_text_lang_adapters): ModuleDict()
                                                     )
                                                   )
                                                   (intermediate): BertIntermediate(
                                                     (dense): Linear(in_features=768, out_features=3072, bias=True)
                                                   )
                                                   (output): BertOutput(
                                                     (dense): Linear(in_features=3072, out_features=768, bias=True)
                                                     (LayerNorm): LayerNorm((768,), eps=1e-12, elementwise_affine=True)
                                                     (dropout): Dropout(p=0.1, inplace=False)
                                                     (adapter_fusion_layer): ModuleDict()
                                                     (layer_text_task_adapters): ModuleDict()
                                                     (layer_text_lang_adapters): ModuleDict()
                                                   )
                                                 )
                                                 (7): BertLayer(
                                                   (attention): BertAttention(
                                                     (self): BertSelfAttention(
                                                       (query): Linear(in_features=768, out_features=768, bias=True)
                                                       (key): Linear(in_features=768, out_features=768, bias=True)
                                                       (value): Linear(in_features=768, out_features=768, bias=True)
                                                       (dropout): Dropout(p=0.1, inplace=False)
                                                     )
                                                     (output): BertSelfOutput(
                                                       (dense): Linear(in_features=768, out_features=768, bias=True)
                                                       (LayerNorm): LayerNorm((768,), eps=1e-12, elementwise_affine=True)
                                                       (dropout): Dropout(p=0.1, inplace=False)
                                                       (attention_text_task_adapters): ModuleDict()
                                                       (adapter_fusion_layer): ModuleDict()
                                                       (attention_text_lang_adapters): ModuleDict()
                                                     )
                                                   )
                                                   (intermediate): BertIntermediate(
                                                     (dense): Linear(in_features=768, out_features=3072, bias=True)
                                                   )
                                                   (output): BertOutput(
                                                     (dense): Linear(in_features=3072, out_features=768, bias=True)
                                                     (LayerNorm): LayerNorm((768,), eps=1e-12, elementwise_affine=True)
                                                     (dropout): Dropout(p=0.1, inplace=False)
                                                     (adapter_fusion_layer): ModuleDict()
                                                     (layer_text_task_adapters): ModuleDict()
                                                     (layer_text_lang_adapters): ModuleDict()
                                                   )
                                                 )
                                                 (8): BertLayer(
                                                   (attention): BertAttention(
                                                     (self): BertSelfAttention(
                                                       (query): Linear(in_features=768, out_features=768, bias=True)
                                                       (key): Linear(in_features=768, out_features=768, bias=True)
                                                       (value): Linear(in_features=768, out_features=768, bias=True)
                                                       (dropout): Dropout(p=0.1, inplace=False)
                                                     )
                                                     (output): BertSelfOutput(
                                                       (dense): Linear(in_features=768, out_features=768, bias=True)
                                                       (LayerNorm): LayerNorm((768,), eps=1e-12, elementwise_affine=True)
                                                       (dropout): Dropout(p=0.1, inplace=False)
                                                       (attention_text_task_adapters): ModuleDict()
                                                       (adapter_fusion_layer): ModuleDict()
                                                       (attention_text_lang_adapters): ModuleDict()
                                                     )
                                                   )
                                                   (intermediate): BertIntermediate(
                                                     (dense): Linear(in_features=768, out_features=3072, bias=True)
                                                   )
                                                   (output): BertOutput(
                                                     (dense): Linear(in_features=3072, out_features=768, bias=True)
                                                     (LayerNorm): LayerNorm((768,), eps=1e-12, elementwise_affine=True)
                                                     (dropout): Dropout(p=0.1, inplace=False)
                                                     (adapter_fusion_layer): ModuleDict()
                                                     (layer_text_task_adapters): ModuleDict()
                                                     (layer_text_lang_adapters): ModuleDict()
                                                   )
                                                 )
                                                 (9): BertLayer(
                                                   (attention): BertAttention(
                                                     (self): BertSelfAttention(
                                                       (query): Linear(in_features=768, out_features=768, bias=True)
                                                       (key): Linear(in_features=768, out_features=768, bias=True)
                                                       (value): Linear(in_features=768, out_features=768, bias=True)
                                                       (dropout): Dropout(p=0.1, inplace=False)
                                                     )
                                                     (output): BertSelfOutput(
                                                       (dense): Linear(in_features=768, out_features=768, bias=True)
                                                       (LayerNorm): LayerNorm((768,), eps=1e-12, elementwise_affine=True)
                                                       (dropout): Dropout(p=0.1, inplace=False)
                                                       (attention_text_task_adapters): ModuleDict()
                                                       (adapter_fusion_layer): ModuleDict()
                                                       (attention_text_lang_adapters): ModuleDict()
                                                     )
                                                   )
                                                   (intermediate): BertIntermediate(
                                                     (dense): Linear(in_features=768, out_features=3072, bias=True)
                                                   )
                                                   (output): BertOutput(
                                                     (dense): Linear(in_features=3072, out_features=768, bias=True)
                                                     (LayerNorm): LayerNorm((768,), eps=1e-12, elementwise_affine=True)
                                                     (dropout): Dropout(p=0.1, inplace=False)
                                                     (adapter_fusion_layer): ModuleDict()
                                                     (layer_text_task_adapters): ModuleDict()
                                                     (layer_text_lang_adapters): ModuleDict()
                                                   )
                                                 )
                                                 (10): BertLayer(
                                                   (attention): BertAttention(
                                                     (self): BertSelfAttention(
                                                       (query): Linear(in_features=768, out_features=768, bias=True)
                                                       (key): Linear(in_features=768, out_features=768, bias=True)
                                                       (value): Linear(in_features=768, out_features=768, bias=True)
                                                       (dropout): Dropout(p=0.1, inplace=False)
                                                     )
                                                     (output): BertSelfOutput(
                                                       (dense): Linear(in_features=768, out_features=768, bias=True)
                                                       (LayerNorm): LayerNorm((768,), eps=1e-12, elementwise_affine=True)
                                                       (dropout): Dropout(p=0.1, inplace=False)
                                                       (attention_text_task_adapters): ModuleDict()
                                                       (adapter_fusion_layer): ModuleDict()
                                                       (attention_text_lang_adapters): ModuleDict()
                                                     )
                                                   )
                                                   (intermediate): BertIntermediate(
                                                     (dense): Linear(in_features=768, out_features=3072, bias=True)
                                                   )
                                                   (output): BertOutput(
                                                     (dense): Linear(in_features=3072, out_features=768, bias=True)
                                                     (LayerNorm): LayerNorm((768,), eps=1e-12, elementwise_affine=True)
                                                     (dropout): Dropout(p=0.1, inplace=False)
                                                     (adapter_fusion_layer): ModuleDict()
                                                     (layer_text_task_adapters): ModuleDict()
                                                     (layer_text_lang_adapters): ModuleDict()
                                                   )
                                                 )
                                                 (11): BertLayer(
                                                   (attention): BertAttention(
                                                     (self): BertSelfAttention(
                                                       (query): Linear(in_features=768, out_features=768, bias=True)
                                                       (key): Linear(in_features=768, out_features=768, bias=True)
                                                       (value): Linear(in_features=768, out_features=768, bias=True)
                                                       (dropout): Dropout(p=0.1, inplace=False)
                                                     )
                                                     (output): BertSelfOutput(
                                                       (dense): Linear(in_features=768, out_features=768, bias=True)
                                                       (LayerNorm): LayerNorm((768,), eps=1e-12, elementwise_affine=True)
                                                       (dropout): Dropout(p=0.1, inplace=False)
                                                       (attention_text_task_adapters): ModuleDict()
                                                       (adapter_fusion_layer): ModuleDict()
                                                       (attention_text_lang_adapters): ModuleDict()
                                                     )
                                                   )
                                                   (intermediate): BertIntermediate(
                                                     (dense): Linear(in_features=768, out_features=3072, bias=True)
                                                   )
                                                   (output): BertOutput(
                                                     (dense): Linear(in_features=3072, out_features=768, bias=True)
                                                     (LayerNorm): LayerNorm((768,), eps=1e-12, elementwise_affine=True)
                                                     (dropout): Dropout(p=0.1, inplace=False)
                                                     (adapter_fusion_layer): ModuleDict()
                                                     (layer_text_task_adapters): ModuleDict()
                                                     (layer_text_lang_adapters): ModuleDict()
                                                   )
                                                 )
                                               )
                                             )
                                             (pooler): BertPooler(
                                               (dense): Linear(in_features=768, out_features=768, bias=True)
                                               (activation): Tanh()
                                             )
                                             (invertible_lang_adapters): ModuleDict()
                                           )
                                         )
                                         (proj_poster): Linear(in_features=4096, out_features=768, bias=False)
                                         (gmu_l_m): GatedMultimodalLayerFeatures(
                                           (hidden1): Linear(in_features=768, out_features=768, bias=False)
                                           (hidden2): Linear(in_features=768, out_features=768, bias=False)
                                           (x_gate): Linear(in_features=1536, out_features=768, bias=False)
                                         )
                                         (gmu_v_m): GatedMultimodalLayerFeatures(
                                           (hidden1): Linear(in_features=768, out_features=768, bias=False)
                                           (hidden2): Linear(in_features=768, out_features=768, bias=False)
                                           (x_gate): Linear(in_features=1536, out_features=768, bias=False)
                                         )
                                         (gmu_a_m): GatedMultimodalLayerFeatures(
                                           (hidden1): Linear(in_features=768, out_features=768, bias=False)
                                           (hidden2): Linear(in_features=768, out_features=768, bias=False)
                                           (x_gate): Linear(in_features=1536, out_features=768, bias=False)
                                         )
                                         (gmu_l): GatedMultimodalLayerFeatures(
                                           (hidden1): Linear(in_features=768, out_features=768, bias=False)
                                           (hidden2): Linear(in_features=768, out_features=768, bias=False)
                                           (x_gate): Linear(in_features=1536, out_features=768, bias=False)
                                         )
                                         (gmu_v): GatedMultimodalLayerFeatures(
                                           (hidden1): Linear(in_features=768, out_features=768, bias=False)
                                           (hidden2): Linear(in_features=768, out_features=768, bias=False)
                                           (x_gate): Linear(in_features=1536, out_features=768, bias=False)
                                         )
                                         (gmu_a): GatedMultimodalLayerFeatures(
                                           (hidden1): Linear(in_features=768, out_features=768, bias=False)
                                           (hidden2): Linear(in_features=768, out_features=768, bias=False)
                                           (x_gate): Linear(in_features=1536, out_features=768, bias=False)
                                         )
                                         (proj_l): Conv1d(768, 768, kernel_size=(1,), stride=(1,), bias=False)
                                         (proj_v): Conv1d(300, 768, kernel_size=(1,), stride=(1,), bias=False)
                                         (proj_a): Conv1d(1, 768, kernel_size=(1,), stride=(1,), bias=False)
                                         (trans_l_with_a): TransformerEncoder(
                                           (embed_positions): SinusoidalPositionalEmbedding()
                                           (layers): ModuleList(
                                             (0): TransformerEncoderLayer(
                                               (self_attn): MultiheadAttention(
                                                 (out_proj): Linear(in_features=768, out_features=768, bias=True)
                                               )
                                               (fc1): Linear(in_features=768, out_features=3072, bias=True)
                                               (fc2): Linear(in_features=3072, out_features=768, bias=True)
                                               (layer_norms): ModuleList(
                                                 (0): LayerNorm((768,), eps=1e-05, elementwise_affine=True)
                                                 (1): LayerNorm((768,), eps=1e-05, elementwise_affine=True)
                                               )
                                             )
                                             (1): TransformerEncoderLayer(
                                               (self_attn): MultiheadAttention(
                                                 (out_proj): Linear(in_features=768, out_features=768, bias=True)
                                               )
                                               (fc1): Linear(in_features=768, out_features=3072, bias=True)
                                               (fc2): Linear(in_features=3072, out_features=768, bias=True)
                                               (layer_norms): ModuleList(
                                                 (0): LayerNorm((768,), eps=1e-05, elementwise_affine=True)
                                                 (1): LayerNorm((768,), eps=1e-05, elementwise_affine=True)
                                               )
                                             )
                                             (2): TransformerEncoderLayer(
                                               (self_attn): MultiheadAttention(
                                                 (out_proj): Linear(in_features=768, out_features=768, bias=True)
                                               )
                                               (fc1): Linear(in_features=768, out_features=3072, bias=True)
                                               (fc2): Linear(in_features=3072, out_features=768, bias=True)
                                               (layer_norms): ModuleList(
                                                 (0): LayerNorm((768,), eps=1e-05, elementwise_affine=True)
                                                 (1): LayerNorm((768,), eps=1e-05, elementwise_affine=True)
                                               )
                                             )
                                             (3): TransformerEncoderLayer(
                                               (self_attn): MultiheadAttention(
                                                 (out_proj): Linear(in_features=768, out_features=768, bias=True)
                                               )
                                               (fc1): Linear(in_features=768, out_features=3072, bias=True)
                                               (fc2): Linear(in_features=3072, out_features=768, bias=True)
                                               (layer_norms): ModuleList(
                                                 (0): LayerNorm((768,), eps=1e-05, elementwise_affine=True)
                                                 (1): LayerNorm((768,), eps=1e-05, elementwise_affine=True)
                                               )
                                             )
                                             (4): TransformerEncoderLayer(
                                               (self_attn): MultiheadAttention(
                                                 (out_proj): Linear(in_features=768, out_features=768, bias=True)
                                               )
                                               (fc1): Linear(in_features=768, out_features=3072, bias=True)
                                               (fc2): Linear(in_features=3072, out_features=768, bias=True)
                                               (layer_norms): ModuleList(
                                                 (0): LayerNorm((768,), eps=1e-05, elementwise_affine=True)
                                                 (1): LayerNorm((768,), eps=1e-05, elementwise_affine=True)
                                               )
                                             )
                                           )
                                           (layer_norm): LayerNorm((768,), eps=1e-05, elementwise_affine=True)
                                         )
                                         (trans_l_with_v): TransformerEncoder(
                                           (embed_positions): SinusoidalPositionalEmbedding()
                                           (layers): ModuleList(
                                             (0): TransformerEncoderLayer(
                                               (self_attn): MultiheadAttention(
                                                 (out_proj): Linear(in_features=768, out_features=768, bias=True)
                                               )
                                               (fc1): Linear(in_features=768, out_features=3072, bias=True)
                                               (fc2): Linear(in_features=3072, out_features=768, bias=True)
                                               (layer_norms): ModuleList(
                                                 (0): LayerNorm((768,), eps=1e-05, elementwise_affine=True)
                                                 (1): LayerNorm((768,), eps=1e-05, elementwise_affine=True)
                                               )
                                             )
                                             (1): TransformerEncoderLayer(
                                               (self_attn): MultiheadAttention(
                                                 (out_proj): Linear(in_features=768, out_features=768, bias=True)
                                               )
                                               (fc1): Linear(in_features=768, out_features=3072, bias=True)
                                               (fc2): Linear(in_features=3072, out_features=768, bias=True)
                                               (layer_norms): ModuleList(
                                                 (0): LayerNorm((768,), eps=1e-05, elementwise_affine=True)
                                                 (1): LayerNorm((768,), eps=1e-05, elementwise_affine=True)
                                               )
                                             )
                                             (2): TransformerEncoderLayer(
                                               (self_attn): MultiheadAttention(
                                                 (out_proj): Linear(in_features=768, out_features=768, bias=True)
                                               )
                                               (fc1): Linear(in_features=768, out_features=3072, bias=True)
                                               (fc2): Linear(in_features=3072, out_features=768, bias=True)
                                               (layer_norms): ModuleList(
                                                 (0): LayerNorm((768,), eps=1e-05, elementwise_affine=True)
                                                 (1): LayerNorm((768,), eps=1e-05, elementwise_affine=True)
                                               )
                                             )
                                             (3): TransformerEncoderLayer(
                                               (self_attn): MultiheadAttention(
                                                 (out_proj): Linear(in_features=768, out_features=768, bias=True)
                                               )
                                               (fc1): Linear(in_features=768, out_features=3072, bias=True)
                                               (fc2): Linear(in_features=3072, out_features=768, bias=True)
                                               (layer_norms): ModuleList(
                                                 (0): LayerNorm((768,), eps=1e-05, elementwise_affine=True)
                                                 (1): LayerNorm((768,), eps=1e-05, elementwise_affine=True)
                                               )
                                             )
                                             (4): TransformerEncoderLayer(
                                               (self_attn): MultiheadAttention(
                                                 (out_proj): Linear(in_features=768, out_features=768, bias=True)
                                               )
                                               (fc1): Linear(in_features=768, out_features=3072, bias=True)
                                               (fc2): Linear(in_features=3072, out_features=768, bias=True)
                                               (layer_norms): ModuleList(
                                                 (0): LayerNorm((768,), eps=1e-05, elementwise_affine=True)
                                                 (1): LayerNorm((768,), eps=1e-05, elementwise_affine=True)
                                               )
                                             )
                                           )
                                           (layer_norm): LayerNorm((768,), eps=1e-05, elementwise_affine=True)
                                         )
                                         (trans_l_with_v2a): TransformerEncoder(
                                           (embed_positions): SinusoidalPositionalEmbedding()
                                           (layers): ModuleList(
                                             (0): TransformerEncoderLayer(
                                               (self_attn): MultiheadAttention(
                                                 (out_proj): Linear(in_features=768, out_features=768, bias=True)
                                               )
                                               (fc1): Linear(in_features=768, out_features=3072, bias=True)
                                               (fc2): Linear(in_features=3072, out_features=768, bias=True)
                                               (layer_norms): ModuleList(
                                                 (0): LayerNorm((768,), eps=1e-05, elementwise_affine=True)
                                                 (1): LayerNorm((768,), eps=1e-05, elementwise_affine=True)
                                               )
                                             )
                                             (1): TransformerEncoderLayer(
                                               (self_attn): MultiheadAttention(
                                                 (out_proj): Linear(in_features=768, out_features=768, bias=True)
                                               )
                                               (fc1): Linear(in_features=768, out_features=3072, bias=True)
                                               (fc2): Linear(in_features=3072, out_features=768, bias=True)
                                               (layer_norms): ModuleList(
                                                 (0): LayerNorm((768,), eps=1e-05, elementwise_affine=True)
                                                 (1): LayerNorm((768,), eps=1e-05, elementwise_affine=True)
                                               )
                                             )
                                             (2): TransformerEncoderLayer(
                                               (self_attn): MultiheadAttention(
                                                 (out_proj): Linear(in_features=768, out_features=768, bias=True)
                                               )
                                               (fc1): Linear(in_features=768, out_features=3072, bias=True)
                                               (fc2): Linear(in_features=3072, out_features=768, bias=True)
                                               (layer_norms): ModuleList(
                                                 (0): LayerNorm((768,), eps=1e-05, elementwise_affine=True)
                                                 (1): LayerNorm((768,), eps=1e-05, elementwise_affine=True)
                                               )
                                             )
                                             (3): TransformerEncoderLayer(
                                               (self_attn): MultiheadAttention(
                                                 (out_proj): Linear(in_features=768, out_features=768, bias=True)
                                               )
                                               (fc1): Linear(in_features=768, out_features=3072, bias=True)
                                               (fc2): Linear(in_features=3072, out_features=768, bias=True)
                                               (layer_norms): ModuleList(
                                                 (0): LayerNorm((768,), eps=1e-05, elementwise_affine=True)
                                                 (1): LayerNorm((768,), eps=1e-05, elementwise_affine=True)
                                               )
                                             )
                                             (4): TransformerEncoderLayer(
                                               (self_attn): MultiheadAttention(
                                                 (out_proj): Linear(in_features=768, out_features=768, bias=True)
                                               )
                                               (fc1): Linear(in_features=768, out_features=3072, bias=True)
                                               (fc2): Linear(in_features=3072, out_features=768, bias=True)
                                               (layer_norms): ModuleList(
                                                 (0): LayerNorm((768,), eps=1e-05, elementwise_affine=True)
                                                 (1): LayerNorm((768,), eps=1e-05, elementwise_affine=True)
                                               )
                                             )
                                           )
                                           (layer_norm): LayerNorm((768,), eps=1e-05, elementwise_affine=True)
                                         )
                                         (trans_l_with_a2v): TransformerEncoder(
                                           (embed_positions): SinusoidalPositionalEmbedding()
                                           (layers): ModuleList(
                                             (0): TransformerEncoderLayer(
                                               (self_attn): MultiheadAttention(
                                                 (out_proj): Linear(in_features=768, out_features=768, bias=True)
                                               )
                                               (fc1): Linear(in_features=768, out_features=3072, bias=True)
                                               (fc2): Linear(in_features=3072, out_features=768, bias=True)
                                               (layer_norms): ModuleList(
                                                 (0): LayerNorm((768,), eps=1e-05, elementwise_affine=True)
                                                 (1): LayerNorm((768,), eps=1e-05, elementwise_affine=True)
                                               )
                                             )
                                             (1): TransformerEncoderLayer(
                                               (self_attn): MultiheadAttention(
                                                 (out_proj): Linear(in_features=768, out_features=768, bias=True)
                                               )
                                               (fc1): Linear(in_features=768, out_features=3072, bias=True)
                                               (fc2): Linear(in_features=3072, out_features=768, bias=True)
                                               (layer_norms): ModuleList(
                                                 (0): LayerNorm((768,), eps=1e-05, elementwise_affine=True)
                                                 (1): LayerNorm((768,), eps=1e-05, elementwise_affine=True)
                                               )
                                             )
                                             (2): TransformerEncoderLayer(
                                               (self_attn): MultiheadAttention(
                                                 (out_proj): Linear(in_features=768, out_features=768, bias=True)
                                               )
                                               (fc1): Linear(in_features=768, out_features=3072, bias=True)
                                               (fc2): Linear(in_features=3072, out_features=768, bias=True)
                                               (layer_norms): ModuleList(
                                                 (0): LayerNorm((768,), eps=1e-05, elementwise_affine=True)
                                                 (1): LayerNorm((768,), eps=1e-05, elementwise_affine=True)
                                               )
                                             )
                                             (3): TransformerEncoderLayer(
                                               (self_attn): MultiheadAttention(
                                                 (out_proj): Linear(in_features=768, out_features=768, bias=True)
                                               )
                                               (fc1): Linear(in_features=768, out_features=3072, bias=True)
                                               (fc2): Linear(in_features=3072, out_features=768, bias=True)
                                               (layer_norms): ModuleList(
                                                 (0): LayerNorm((768,), eps=1e-05, elementwise_affine=True)
                                                 (1): LayerNorm((768,), eps=1e-05, elementwise_affine=True)
                                               )
                                             )
                                             (4): TransformerEncoderLayer(
                                               (self_attn): MultiheadAttention(
                                                 (out_proj): Linear(in_features=768, out_features=768, bias=True)
                                               )
                                               (fc1): Linear(in_features=768, out_features=3072, bias=True)
                                               (fc2): Linear(in_features=3072, out_features=768, bias=True)
                                               (layer_norms): ModuleList(
                                                 (0): LayerNorm((768,), eps=1e-05, elementwise_affine=True)
                                                 (1): LayerNorm((768,), eps=1e-05, elementwise_affine=True)
                                               )
                                             )
                                           )
                                           (layer_norm): LayerNorm((768,), eps=1e-05, elementwise_affine=True)
                                         )
                                         (trans_v_with_l): TransformerEncoder(
                                           (embed_positions): SinusoidalPositionalEmbedding()
                                           (layers): ModuleList(
                                             (0): TransformerEncoderLayer(
                                               (self_attn): MultiheadAttention(
                                                 (out_proj): Linear(in_features=768, out_features=768, bias=True)
                                               )
                                               (fc1): Linear(in_features=768, out_features=3072, bias=True)
                                               (fc2): Linear(in_features=3072, out_features=768, bias=True)
                                               (layer_norms): ModuleList(
                                                 (0): LayerNorm((768,), eps=1e-05, elementwise_affine=True)
                                                 (1): LayerNorm((768,), eps=1e-05, elementwise_affine=True)
                                               )
                                             )
                                             (1): TransformerEncoderLayer(
                                               (self_attn): MultiheadAttention(
                                                 (out_proj): Linear(in_features=768, out_features=768, bias=True)
                                               )
                                               (fc1): Linear(in_features=768, out_features=3072, bias=True)
                                               (fc2): Linear(in_features=3072, out_features=768, bias=True)
                                               (layer_norms): ModuleList(
                                                 (0): LayerNorm((768,), eps=1e-05, elementwise_affine=True)
                                                 (1): LayerNorm((768,), eps=1e-05, elementwise_affine=True)
                                               )
                                             )
                                             (2): TransformerEncoderLayer(
                                               (self_attn): MultiheadAttention(
                                                 (out_proj): Linear(in_features=768, out_features=768, bias=True)
                                               )
                                               (fc1): Linear(in_features=768, out_features=3072, bias=True)
                                               (fc2): Linear(in_features=3072, out_features=768, bias=True)
                                               (layer_norms): ModuleList(
                                                 (0): LayerNorm((768,), eps=1e-05, elementwise_affine=True)
                                                 (1): LayerNorm((768,), eps=1e-05, elementwise_affine=True)
                                               )
                                             )
                                             (3): TransformerEncoderLayer(
                                               (self_attn): MultiheadAttention(
                                                 (out_proj): Linear(in_features=768, out_features=768, bias=True)
                                               )
                                               (fc1): Linear(in_features=768, out_features=3072, bias=True)
                                               (fc2): Linear(in_features=3072, out_features=768, bias=True)
                                               (layer_norms): ModuleList(
                                                 (0): LayerNorm((768,), eps=1e-05, elementwise_affine=True)
                                                 (1): LayerNorm((768,), eps=1e-05, elementwise_affine=True)
                                               )
                                             )
                                             (4): TransformerEncoderLayer(
                                               (self_attn): MultiheadAttention(
                                                 (out_proj): Linear(in_features=768, out_features=768, bias=True)
                                               )
                                               (fc1): Linear(in_features=768, out_features=3072, bias=True)
                                               (fc2): Linear(in_features=3072, out_features=768, bias=True)
                                               (layer_norms): ModuleList(
                                                 (0): LayerNorm((768,), eps=1e-05, elementwise_affine=True)
                                                 (1): LayerNorm((768,), eps=1e-05, elementwise_affine=True)
                                               )
                                             )
                                           )
                                           (layer_norm): LayerNorm((768,), eps=1e-05, elementwise_affine=True)
                                         )
                                         (trans_v_with_a): TransformerEncoder(
                                           (embed_positions): SinusoidalPositionalEmbedding()
                                           (layers): ModuleList(
                                             (0): TransformerEncoderLayer(
                                               (self_attn): MultiheadAttention(
                                                 (out_proj): Linear(in_features=768, out_features=768, bias=True)
                                               )
                                               (fc1): Linear(in_features=768, out_features=3072, bias=True)
                                               (fc2): Linear(in_features=3072, out_features=768, bias=True)
                                               (layer_norms): ModuleList(
                                                 (0): LayerNorm((768,), eps=1e-05, elementwise_affine=True)
                                                 (1): LayerNorm((768,), eps=1e-05, elementwise_affine=True)
                                               )
                                             )
                                             (1): TransformerEncoderLayer(
                                               (self_attn): MultiheadAttention(
                                                 (out_proj): Linear(in_features=768, out_features=768, bias=True)
                                               )
                                               (fc1): Linear(in_features=768, out_features=3072, bias=True)
                                               (fc2): Linear(in_features=3072, out_features=768, bias=True)
                                               (layer_norms): ModuleList(
                                                 (0): LayerNorm((768,), eps=1e-05, elementwise_affine=True)
                                                 (1): LayerNorm((768,), eps=1e-05, elementwise_affine=True)
                                               )
                                             )
                                             (2): TransformerEncoderLayer(
                                               (self_attn): MultiheadAttention(
                                                 (out_proj): Linear(in_features=768, out_features=768, bias=True)
                                               )
                                               (fc1): Linear(in_features=768, out_features=3072, bias=True)
                                               (fc2): Linear(in_features=3072, out_features=768, bias=True)
                                               (layer_norms): ModuleList(
                                                 (0): LayerNorm((768,), eps=1e-05, elementwise_affine=True)
                                                 (1): LayerNorm((768,), eps=1e-05, elementwise_affine=True)
                                               )
                                             )
                                             (3): TransformerEncoderLayer(
                                               (self_attn): MultiheadAttention(
                                                 (out_proj): Linear(in_features=768, out_features=768, bias=True)
                                               )
                                               (fc1): Linear(in_features=768, out_features=3072, bias=True)
                                               (fc2): Linear(in_features=3072, out_features=768, bias=True)
                                               (layer_norms): ModuleList(
                                                 (0): LayerNorm((768,), eps=1e-05, elementwise_affine=True)
                                                 (1): LayerNorm((768,), eps=1e-05, elementwise_affine=True)
                                               )
                                             )
                                             (4): TransformerEncoderLayer(
                                               (self_attn): MultiheadAttention(
                                                 (out_proj): Linear(in_features=768, out_features=768, bias=True)
                                               )
                                               (fc1): Linear(in_features=768, out_features=3072, bias=True)
                                               (fc2): Linear(in_features=3072, out_features=768, bias=True)
                                               (layer_norms): ModuleList(
                                                 (0): LayerNorm((768,), eps=1e-05, elementwise_affine=True)
                                                 (1): LayerNorm((768,), eps=1e-05, elementwise_affine=True)
                                               )
                                             )
                                           )
                                           (layer_norm): LayerNorm((768,), eps=1e-05, elementwise_affine=True)
                                         )
                                         (trans_v_with_l2a): TransformerEncoder(
                                           (embed_positions): SinusoidalPositionalEmbedding()
                                           (layers): ModuleList(
                                             (0): TransformerEncoderLayer(
                                               (self_attn): MultiheadAttention(
                                                 (out_proj): Linear(in_features=768, out_features=768, bias=True)
                                               )
                                               (fc1): Linear(in_features=768, out_features=3072, bias=True)
                                               (fc2): Linear(in_features=3072, out_features=768, bias=True)
                                               (layer_norms): ModuleList(
                                                 (0): LayerNorm((768,), eps=1e-05, elementwise_affine=True)
                                                 (1): LayerNorm((768,), eps=1e-05, elementwise_affine=True)
                                               )
                                             )
                                             (1): TransformerEncoderLayer(
                                               (self_attn): MultiheadAttention(
                                                 (out_proj): Linear(in_features=768, out_features=768, bias=True)
                                               )
                                               (fc1): Linear(in_features=768, out_features=3072, bias=True)
                                               (fc2): Linear(in_features=3072, out_features=768, bias=True)
                                               (layer_norms): ModuleList(
                                                 (0): LayerNorm((768,), eps=1e-05, elementwise_affine=True)
                                                 (1): LayerNorm((768,), eps=1e-05, elementwise_affine=True)
                                               )
                                             )
                                             (2): TransformerEncoderLayer(
                                               (self_attn): MultiheadAttention(
                                                 (out_proj): Linear(in_features=768, out_features=768, bias=True)
                                               )
                                               (fc1): Linear(in_features=768, out_features=3072, bias=True)
                                               (fc2): Linear(in_features=3072, out_features=768, bias=True)
                                               (layer_norms): ModuleList(
                                                 (0): LayerNorm((768,), eps=1e-05, elementwise_affine=True)
                                                 (1): LayerNorm((768,), eps=1e-05, elementwise_affine=True)
                                               )
                                             )
                                             (3): TransformerEncoderLayer(
                                               (self_attn): MultiheadAttention(
                                                 (out_proj): Linear(in_features=768, out_features=768, bias=True)
                                               )
                                               (fc1): Linear(in_features=768, out_features=3072, bias=True)
                                               (fc2): Linear(in_features=3072, out_features=768, bias=True)
                                               (layer_norms): ModuleList(
                                                 (0): LayerNorm((768,), eps=1e-05, elementwise_affine=True)
                                                 (1): LayerNorm((768,), eps=1e-05, elementwise_affine=True)
                                               )
                                             )
                                             (4): TransformerEncoderLayer(
                                               (self_attn): MultiheadAttention(
                                                 (out_proj): Linear(in_features=768, out_features=768, bias=True)
                                               )
                                               (fc1): Linear(in_features=768, out_features=3072, bias=True)
                                               (fc2): Linear(in_features=3072, out_features=768, bias=True)
                                               (layer_norms): ModuleList(
                                                 (0): LayerNorm((768,), eps=1e-05, elementwise_affine=True)
                                                 (1): LayerNorm((768,), eps=1e-05, elementwise_affine=True)
                                               )
                                             )
                                           )
                                           (layer_norm): LayerNorm((768,), eps=1e-05, elementwise_affine=True)
                                         )
                                         (trans_v_with_a2l): TransformerEncoder(
                                           (embed_positions): SinusoidalPositionalEmbedding()
                                           (layers): ModuleList(
                                             (0): TransformerEncoderLayer(
                                               (self_attn): MultiheadAttention(
                                                 (out_proj): Linear(in_features=768, out_features=768, bias=True)
                                               )
                                               (fc1): Linear(in_features=768, out_features=3072, bias=True)
                                               (fc2): Linear(in_features=3072, out_features=768, bias=True)
                                               (layer_norms): ModuleList(
                                                 (0): LayerNorm((768,), eps=1e-05, elementwise_affine=True)
                                                 (1): LayerNorm((768,), eps=1e-05, elementwise_affine=True)
                                               )
                                             )
                                             (1): TransformerEncoderLayer(
                                               (self_attn): MultiheadAttention(
                                                 (out_proj): Linear(in_features=768, out_features=768, bias=True)
                                               )
                                               (fc1): Linear(in_features=768, out_features=3072, bias=True)
                                               (fc2): Linear(in_features=3072, out_features=768, bias=True)
                                               (layer_norms): ModuleList(
                                                 (0): LayerNorm((768,), eps=1e-05, elementwise_affine=True)
                                                 (1): LayerNorm((768,), eps=1e-05, elementwise_affine=True)
                                               )
                                             )
                                             (2): TransformerEncoderLayer(
                                               (self_attn): MultiheadAttention(
                                                 (out_proj): Linear(in_features=768, out_features=768, bias=True)
                                               )
                                               (fc1): Linear(in_features=768, out_features=3072, bias=True)
                                               (fc2): Linear(in_features=3072, out_features=768, bias=True)
                                               (layer_norms): ModuleList(
                                                 (0): LayerNorm((768,), eps=1e-05, elementwise_affine=True)
                                                 (1): LayerNorm((768,), eps=1e-05, elementwise_affine=True)
                                               )
                                             )
                                             (3): TransformerEncoderLayer(
                                               (self_attn): MultiheadAttention(
                                                 (out_proj): Linear(in_features=768, out_features=768, bias=True)
                                               )
                                               (fc1): Linear(in_features=768, out_features=3072, bias=True)
                                               (fc2): Linear(in_features=3072, out_features=768, bias=True)
                                               (layer_norms): ModuleList(
                                                 (0): LayerNorm((768,), eps=1e-05, elementwise_affine=True)
                                                 (1): LayerNorm((768,), eps=1e-05, elementwise_affine=True)
                                               )
                                             )
                                             (4): TransformerEncoderLayer(
                                               (self_attn): MultiheadAttention(
                                                 (out_proj): Linear(in_features=768, out_features=768, bias=True)
                                               )
                                               (fc1): Linear(in_features=768, out_features=3072, bias=True)
                                               (fc2): Linear(in_features=3072, out_features=768, bias=True)
                                               (layer_norms): ModuleList(
                                                 (0): LayerNorm((768,), eps=1e-05, elementwise_affine=True)
                                                 (1): LayerNorm((768,), eps=1e-05, elementwise_affine=True)
                                               )
                                             )
                                           )
                                           (layer_norm): LayerNorm((768,), eps=1e-05, elementwise_affine=True)
                                         )
                                         (trans_a_with_l): TransformerEncoder(
                                           (embed_positions): SinusoidalPositionalEmbedding()
                                           (layers): ModuleList(
                                             (0): TransformerEncoderLayer(
                                               (self_attn): MultiheadAttention(
                                                 (out_proj): Linear(in_features=768, out_features=768, bias=True)
                                               )
                                               (fc1): Linear(in_features=768, out_features=3072, bias=True)
                                               (fc2): Linear(in_features=3072, out_features=768, bias=True)
                                               (layer_norms): ModuleList(
                                                 (0): LayerNorm((768,), eps=1e-05, elementwise_affine=True)
                                                 (1): LayerNorm((768,), eps=1e-05, elementwise_affine=True)
                                               )
                                             )
                                             (1): TransformerEncoderLayer(
                                               (self_attn): MultiheadAttention(
                                                 (out_proj): Linear(in_features=768, out_features=768, bias=True)
                                               )
                                               (fc1): Linear(in_features=768, out_features=3072, bias=True)
                                               (fc2): Linear(in_features=3072, out_features=768, bias=True)
                                               (layer_norms): ModuleList(
                                                 (0): LayerNorm((768,), eps=1e-05, elementwise_affine=True)
                                                 (1): LayerNorm((768,), eps=1e-05, elementwise_affine=True)
                                               )
                                             )
                                             (2): TransformerEncoderLayer(
                                               (self_attn): MultiheadAttention(
                                                 (out_proj): Linear(in_features=768, out_features=768, bias=True)
                                               )
                                               (fc1): Linear(in_features=768, out_features=3072, bias=True)
                                               (fc2): Linear(in_features=3072, out_features=768, bias=True)
                                               (layer_norms): ModuleList(
                                                 (0): LayerNorm((768,), eps=1e-05, elementwise_affine=True)
                                                 (1): LayerNorm((768,), eps=1e-05, elementwise_affine=True)
                                               )
                                             )
                                             (3): TransformerEncoderLayer(
                                               (self_attn): MultiheadAttention(
                                                 (out_proj): Linear(in_features=768, out_features=768, bias=True)
                                               )
                                               (fc1): Linear(in_features=768, out_features=3072, bias=True)
                                               (fc2): Linear(in_features=3072, out_features=768, bias=True)
                                               (layer_norms): ModuleList(
                                                 (0): LayerNorm((768,), eps=1e-05, elementwise_affine=True)
                                                 (1): LayerNorm((768,), eps=1e-05, elementwise_affine=True)
                                               )
                                             )
                                             (4): TransformerEncoderLayer(
                                               (self_attn): MultiheadAttention(
                                                 (out_proj): Linear(in_features=768, out_features=768, bias=True)
                                               )
                                               (fc1): Linear(in_features=768, out_features=3072, bias=True)
                                               (fc2): Linear(in_features=3072, out_features=768, bias=True)
                                               (layer_norms): ModuleList(
                                                 (0): LayerNorm((768,), eps=1e-05, elementwise_affine=True)
                                                 (1): LayerNorm((768,), eps=1e-05, elementwise_affine=True)
                                               )
                                             )
                                           )
                                           (layer_norm): LayerNorm((768,), eps=1e-05, elementwise_affine=True)
                                         )
                                         (trans_a_with_v): TransformerEncoder(
                                           (embed_positions): SinusoidalPositionalEmbedding()
                                           (layers): ModuleList(
                                             (0): TransformerEncoderLayer(
                                               (self_attn): MultiheadAttention(
                                                 (out_proj): Linear(in_features=768, out_features=768, bias=True)
                                               )
                                               (fc1): Linear(in_features=768, out_features=3072, bias=True)
                                               (fc2): Linear(in_features=3072, out_features=768, bias=True)
                                               (layer_norms): ModuleList(
                                                 (0): LayerNorm((768,), eps=1e-05, elementwise_affine=True)
                                                 (1): LayerNorm((768,), eps=1e-05, elementwise_affine=True)
                                               )
                                             )
                                             (1): TransformerEncoderLayer(
                                               (self_attn): MultiheadAttention(
                                                 (out_proj): Linear(in_features=768, out_features=768, bias=True)
                                               )
                                               (fc1): Linear(in_features=768, out_features=3072, bias=True)
                                               (fc2): Linear(in_features=3072, out_features=768, bias=True)
                                               (layer_norms): ModuleList(
                                                 (0): LayerNorm((768,), eps=1e-05, elementwise_affine=True)
                                                 (1): LayerNorm((768,), eps=1e-05, elementwise_affine=True)
                                               )
                                             )
                                             (2): TransformerEncoderLayer(
                                               (self_attn): MultiheadAttention(
                                                 (out_proj): Linear(in_features=768, out_features=768, bias=True)
                                               )
                                               (fc1): Linear(in_features=768, out_features=3072, bias=True)
                                               (fc2): Linear(in_features=3072, out_features=768, bias=True)
                                               (layer_norms): ModuleList(
                                                 (0): LayerNorm((768,), eps=1e-05, elementwise_affine=True)
                                                 (1): LayerNorm((768,), eps=1e-05, elementwise_affine=True)
                                               )
                                             )
                                             (3): TransformerEncoderLayer(
                                               (self_attn): MultiheadAttention(
                                                 (out_proj): Linear(in_features=768, out_features=768, bias=True)
                                               )
                                               (fc1): Linear(in_features=768, out_features=3072, bias=True)
                                               (fc2): Linear(in_features=3072, out_features=768, bias=True)
                                               (layer_norms): ModuleList(
                                                 (0): LayerNorm((768,), eps=1e-05, elementwise_affine=True)
                                                 (1): LayerNorm((768,), eps=1e-05, elementwise_affine=True)
                                               )
                                             )
                                             (4): TransformerEncoderLayer(
                                               (self_attn): MultiheadAttention(
                                                 (out_proj): Linear(in_features=768, out_features=768, bias=True)
                                               )
                                               (fc1): Linear(in_features=768, out_features=3072, bias=True)
                                               (fc2): Linear(in_features=3072, out_features=768, bias=True)
                                               (layer_norms): ModuleList(
                                                 (0): LayerNorm((768,), eps=1e-05, elementwise_affine=True)
                                                 (1): LayerNorm((768,), eps=1e-05, elementwise_affine=True)
                                               )
                                             )
                                           )
                                           (layer_norm): LayerNorm((768,), eps=1e-05, elementwise_affine=True)
                                         )
                                         (trans_a_with_v2l): TransformerEncoder(
                                           (embed_positions): SinusoidalPositionalEmbedding()
                                           (layers): ModuleList(
                                             (0): TransformerEncoderLayer(
                                               (self_attn): MultiheadAttention(
                                                 (out_proj): Linear(in_features=768, out_features=768, bias=True)
                                               )
                                               (fc1): Linear(in_features=768, out_features=3072, bias=True)
                                               (fc2): Linear(in_features=3072, out_features=768, bias=True)
                                               (layer_norms): ModuleList(
                                                 (0): LayerNorm((768,), eps=1e-05, elementwise_affine=True)
                                                 (1): LayerNorm((768,), eps=1e-05, elementwise_affine=True)
                                               )
                                             )
                                             (1): TransformerEncoderLayer(
                                               (self_attn): MultiheadAttention(
                                                 (out_proj): Linear(in_features=768, out_features=768, bias=True)
                                               )
                                               (fc1): Linear(in_features=768, out_features=3072, bias=True)
                                               (fc2): Linear(in_features=3072, out_features=768, bias=True)
                                               (layer_norms): ModuleList(
                                                 (0): LayerNorm((768,), eps=1e-05, elementwise_affine=True)
                                                 (1): LayerNorm((768,), eps=1e-05, elementwise_affine=True)
                                               )
                                             )
                                             (2): TransformerEncoderLayer(
                                               (self_attn): MultiheadAttention(
                                                 (out_proj): Linear(in_features=768, out_features=768, bias=True)
                                               )
                                               (fc1): Linear(in_features=768, out_features=3072, bias=True)
                                               (fc2): Linear(in_features=3072, out_features=768, bias=True)
                                               (layer_norms): ModuleList(
                                                 (0): LayerNorm((768,), eps=1e-05, elementwise_affine=True)
                                                 (1): LayerNorm((768,), eps=1e-05, elementwise_affine=True)
                                               )
                                             )
                                             (3): TransformerEncoderLayer(
                                               (self_attn): MultiheadAttention(
                                                 (out_proj): Linear(in_features=768, out_features=768, bias=True)
                                               )
                                               (fc1): Linear(in_features=768, out_features=3072, bias=True)
                                               (fc2): Linear(in_features=3072, out_features=768, bias=True)
                                               (layer_norms): ModuleList(
                                                 (0): LayerNorm((768,), eps=1e-05, elementwise_affine=True)
                                                 (1): LayerNorm((768,), eps=1e-05, elementwise_affine=True)
                                               )
                                             )
                                             (4): TransformerEncoderLayer(
                                               (self_attn): MultiheadAttention(
                                                 (out_proj): Linear(in_features=768, out_features=768, bias=True)
                                               )
                                               (fc1): Linear(in_features=768, out_features=3072, bias=True)
                                               (fc2): Linear(in_features=3072, out_features=768, bias=True)
                                               (layer_norms): ModuleList(
                                                 (0): LayerNorm((768,), eps=1e-05, elementwise_affine=True)
                                                 (1): LayerNorm((768,), eps=1e-05, elementwise_affine=True)
                                               )
                                             )
                                           )
                                           (layer_norm): LayerNorm((768,), eps=1e-05, elementwise_affine=True)
                                         )
                                         (trans_a_with_l2v): TransformerEncoder(
                                           (embed_positions): SinusoidalPositionalEmbedding()
                                           (layers): ModuleList(
                                             (0): TransformerEncoderLayer(
                                               (self_attn): MultiheadAttention(
                                                 (out_proj): Linear(in_features=768, out_features=768, bias=True)
                                               )
                                               (fc1): Linear(in_features=768, out_features=3072, bias=True)
                                               (fc2): Linear(in_features=3072, out_features=768, bias=True)
                                               (layer_norms): ModuleList(
                                                 (0): LayerNorm((768,), eps=1e-05, elementwise_affine=True)
                                                 (1): LayerNorm((768,), eps=1e-05, elementwise_affine=True)
                                               )
                                             )
                                             (1): TransformerEncoderLayer(
                                               (self_attn): MultiheadAttention(
                                                 (out_proj): Linear(in_features=768, out_features=768, bias=True)
                                               )
                                               (fc1): Linear(in_features=768, out_features=3072, bias=True)
                                               (fc2): Linear(in_features=3072, out_features=768, bias=True)
                                               (layer_norms): ModuleList(
                                                 (0): LayerNorm((768,), eps=1e-05, elementwise_affine=True)
                                                 (1): LayerNorm((768,), eps=1e-05, elementwise_affine=True)
                                               )
                                             )
                                             (2): TransformerEncoderLayer(
                                               (self_attn): MultiheadAttention(
                                                 (out_proj): Linear(in_features=768, out_features=768, bias=True)
                                               )
                                               (fc1): Linear(in_features=768, out_features=3072, bias=True)
                                               (fc2): Linear(in_features=3072, out_features=768, bias=True)
                                               (layer_norms): ModuleList(
                                                 (0): LayerNorm((768,), eps=1e-05, elementwise_affine=True)
                                                 (1): LayerNorm((768,), eps=1e-05, elementwise_affine=True)
                                               )
                                             )
                                             (3): TransformerEncoderLayer(
                                               (self_attn): MultiheadAttention(
                                                 (out_proj): Linear(in_features=768, out_features=768, bias=True)
                                               )
                                               (fc1): Linear(in_features=768, out_features=3072, bias=True)
                                               (fc2): Linear(in_features=3072, out_features=768, bias=True)
                                               (layer_norms): ModuleList(
                                                 (0): LayerNorm((768,), eps=1e-05, elementwise_affine=True)
                                                 (1): LayerNorm((768,), eps=1e-05, elementwise_affine=True)
                                               )
                                             )
                                             (4): TransformerEncoderLayer(
                                               (self_attn): MultiheadAttention(
                                                 (out_proj): Linear(in_features=768, out_features=768, bias=True)
                                               )
                                               (fc1): Linear(in_features=768, out_features=3072, bias=True)
                                               (fc2): Linear(in_features=3072, out_features=768, bias=True)
                                               (layer_norms): ModuleList(
                                                 (0): LayerNorm((768,), eps=1e-05, elementwise_affine=True)
                                                 (1): LayerNorm((768,), eps=1e-05, elementwise_affine=True)
                                               )
                                             )
                                           )
                                           (layer_norm): LayerNorm((768,), eps=1e-05, elementwise_affine=True)
                                         )
                                         (proj1): Linear(in_features=768, out_features=768, bias=True)
                                         (proj2): Linear(in_features=768, out_features=768, bias=True)
                                         (out_layer): Linear(in_features=768, out_features=18, bias=True)
                                         (gmu): TextShifting4Layer(
                                           (hidden1): Linear(in_features=768, out_features=768, bias=False)
                                           (hidden2): Linear(in_features=768, out_features=768, bias=False)
                                           (hidden3): Linear(in_features=768, out_features=768, bias=False)
                                           (hidden4): Linear(in_features=768, out_features=768, bias=False)
                                           (x1_gate): Linear(in_features=3072, out_features=768, bias=False)
                                           (x2_gate): Linear(in_features=3072, out_features=768, bias=False)
                                           (x3_gate): Linear(in_features=3072, out_features=768, bias=False)
                                           (x4_gate): Linear(in_features=3072, out_features=768, bias=False)
                                         )
                                         (transfm_a2l): Linear(in_features=512, out_features=512, bias=True)
                                         (transfm_v2l): Linear(in_features=512, out_features=512, bias=True)
                                         (transfm_l2a): Linear(in_features=512, out_features=512, bias=True)
                                         (transfm_l2v): Linear(in_features=512, out_features=512, bias=True)
                                         (transfm_v2a): Linear(in_features=512, out_features=512, bias=True)
                                         (transfm_a2v): Linear(in_features=512, out_features=512, bias=True)
                                       )
                                     )
INFO - 04/12/22 19:37:03 - 0:00:01 - Training..
INFO - 04/12/22 20:08:17 - 0:31:15 - Train Loss: 0.1626
INFO - 04/12/22 20:08:17 - 0:31:15 - Val: Loss: 0.81613
                                     | Micro F1 45.273 | Macro F1: 39.345 | Weighted F1: 56.316 | Samples F1: 46.533 | AP Micro: 43.331
…
