…
                                     vocab: <mmbt.data.vocab.Vocab object at 0x7fd59f038f10>
                                     vocab_sz: 30522
                                     vonly: True
                                     warmup: 0.1
                                     weight_classes: 1
INFO - 09/07/21 23:24:53 - 0:00:00 - DataParallel(
                                       (module): MMTransformerGMUHybridClf(
                                         (enc): BertEncoder(
                                           (bert): BertModel(
                                             (embeddings): BertEmbeddings(
                                               (word_embeddings): Embedding(30522, 768, padding_idx=0)
                                               (position_embeddings): Embedding(512, 768)
                                               (token_type_embeddings): Embedding(2, 768)
                                               (LayerNorm): LayerNorm((768,), eps=1e-12, elementwise_affine=True)
                                               (dropout): Dropout(p=0.1, inplace=False)
                                             )
                                             (encoder): BertEncoder(
                                               (layer): ModuleList(
                                                 (0): BertLayer(
                                                   (attention): BertAttention(
                                                     (self): BertSelfAttention(
                                                       (query): Linear(in_features=768, out_features=768, bias=True)
                                                       (key): Linear(in_features=768, out_features=768, bias=True)
                                                       (value): Linear(in_features=768, out_features=768, bias=True)
                                                       (dropout): Dropout(p=0.1, inplace=False)
                                                     )
                                                     (output): BertSelfOutput(
                                                       (dense): Linear(in_features=768, out_features=768, bias=True)
                                                       (LayerNorm): LayerNorm((768,), eps=1e-12, elementwise_affine=True)
                                                       (dropout): Dropout(p=0.1, inplace=False)
                                                       (attention_text_task_adapters): ModuleDict()
                                                       (adapter_fusion_layer): ModuleDict()
                                                       (attention_text_lang_adapters): ModuleDict()
                                                     )
                                                   )
                                                   (intermediate): BertIntermediate(
                                                     (dense): Linear(in_features=768, out_features=3072, bias=True)
                                                   )
                                                   (output): BertOutput(
                                                     (dense): Linear(in_features=3072, out_features=768, bias=True)
                                                     (LayerNorm): LayerNorm((768,), eps=1e-12, elementwise_affine=True)
                                                     (dropout): Dropout(p=0.1, inplace=False)
                                                     (adapter_fusion_layer): ModuleDict()
                                                     (layer_text_task_adapters): ModuleDict()
                                                     (layer_text_lang_adapters): ModuleDict()
                                                   )
                                                 )
                                                 (1): BertLayer(
                                                   (attention): BertAttention(
                                                     (self): BertSelfAttention(
                                                       (query): Linear(in_features=768, out_features=768, bias=True)
                                                       (key): Linear(in_features=768, out_features=768, bias=True)
                                                       (value): Linear(in_features=768, out_features=768, bias=True)
                                                       (dropout): Dropout(p=0.1, inplace=False)
                                                     )
                                                     (output): BertSelfOutput(
                                                       (dense): Linear(in_features=768, out_features=768, bias=True)
                                                       (LayerNorm): LayerNorm((768,), eps=1e-12, elementwise_affine=True)
                                                       (dropout): Dropout(p=0.1, inplace=False)
                                                       (attention_text_task_adapters): ModuleDict()
                                                       (adapter_fusion_layer): ModuleDict()
                                                       (attention_text_lang_adapters): ModuleDict()
                                                     )
                                                   )
                                                   (intermediate): BertIntermediate(
                                                     (dense): Linear(in_features=768, out_features=3072, bias=True)
                                                   )
                                                   (output): BertOutput(
                                                     (dense): Linear(in_features=3072, out_features=768, bias=True)
                                                     (LayerNorm): LayerNorm((768,), eps=1e-12, elementwise_affine=True)
                                                     (dropout): Dropout(p=0.1, inplace=False)
                                                     (adapter_fusion_layer): ModuleDict()
                                                     (layer_text_task_adapters): ModuleDict()
                                                     (layer_text_lang_adapters): ModuleDict()
                                                   )
                                                 )
                                                 (2): BertLayer(
                                                   (attention): BertAttention(
                                                     (self): BertSelfAttention(
                                                       (query): Linear(in_features=768, out_features=768, bias=True)
                                                       (key): Linear(in_features=768, out_features=768, bias=True)
                                                       (value): Linear(in_features=768, out_features=768, bias=True)
                                                       (dropout): Dropout(p=0.1, inplace=False)
                                                     )
                                                     (output): BertSelfOutput(
                                                       (dense): Linear(in_features=768, out_features=768, bias=True)
                                                       (LayerNorm): LayerNorm((768,), eps=1e-12, elementwise_affine=True)
                                                       (dropout): Dropout(p=0.1, inplace=False)
                                                       (attention_text_task_adapters): ModuleDict()
                                                       (adapter_fusion_layer): ModuleDict()
                                                       (attention_text_lang_adapters): ModuleDict()
                                                     )
                                                   )
                                                   (intermediate): BertIntermediate(
                                                     (dense): Linear(in_features=768, out_features=3072, bias=True)
                                                   )
                                                   (output): BertOutput(
                                                     (dense): Linear(in_features=3072, out_features=768, bias=True)
                                                     (LayerNorm): LayerNorm((768,), eps=1e-12, elementwise_affine=True)
                                                     (dropout): Dropout(p=0.1, inplace=False)
                                                     (adapter_fusion_layer): ModuleDict()
                                                     (layer_text_task_adapters): ModuleDict()
                                                     (layer_text_lang_adapters): ModuleDict()
                                                   )
                                                 )
                                                 (3): BertLayer(
                                                   (attention): BertAttention(
                                                     (self): BertSelfAttention(
                                                       (query): Linear(in_features=768, out_features=768, bias=True)
                                                       (key): Linear(in_features=768, out_features=768, bias=True)
                                                       (value): Linear(in_features=768, out_features=768, bias=True)
                                                       (dropout): Dropout(p=0.1, inplace=False)
                                                     )
                                                     (output): BertSelfOutput(
                                                       (dense): Linear(in_features=768, out_features=768, bias=True)
                                                       (LayerNorm): LayerNorm((768,), eps=1e-12, elementwise_affine=True)
                                                       (dropout): Dropout(p=0.1, inplace=False)
                                                       (attention_text_task_adapters): ModuleDict()
                                                       (adapter_fusion_layer): ModuleDict()
                                                       (attention_text_lang_adapters): ModuleDict()
                                                     )
                                                   )
                                                   (intermediate): BertIntermediate(
                                                     (dense): Linear(in_features=768, out_features=3072, bias=True)
                                                   )
                                                   (output): BertOutput(
                                                     (dense): Linear(in_features=3072, out_features=768, bias=True)
                                                     (LayerNorm): LayerNorm((768,), eps=1e-12, elementwise_affine=True)
                                                     (dropout): Dropout(p=0.1, inplace=False)
                                                     (adapter_fusion_layer): ModuleDict()
                                                     (layer_text_task_adapters): ModuleDict()
                                                     (layer_text_lang_adapters): ModuleDict()
                                                   )
                                                 )
                                                 (4): BertLayer(
                                                   (attention): BertAttention(
                                                     (self): BertSelfAttention(
                                                       (query): Linear(in_features=768, out_features=768, bias=True)
                                                       (key): Linear(in_features=768, out_features=768, bias=True)
                                                       (value): Linear(in_features=768, out_features=768, bias=True)
                                                       (dropout): Dropout(p=0.1, inplace=False)
                                                     )
                                                     (output): BertSelfOutput(
                                                       (dense): Linear(in_features=768, out_features=768, bias=True)
                                                       (LayerNorm): LayerNorm((768,), eps=1e-12, elementwise_affine=True)
                                                       (dropout): Dropout(p=0.1, inplace=False)
                                                       (attention_text_task_adapters): ModuleDict()
                                                       (adapter_fusion_layer): ModuleDict()
                                                       (attention_text_lang_adapters): ModuleDict()
                                                     )
                                                   )
                                                   (intermediate): BertIntermediate(
                                                     (dense): Linear(in_features=768, out_features=3072, bias=True)
                                                   )
                                                   (output): BertOutput(
                                                     (dense): Linear(in_features=3072, out_features=768, bias=True)
                                                     (LayerNorm): LayerNorm((768,), eps=1e-12, elementwise_affine=True)
                                                     (dropout): Dropout(p=0.1, inplace=False)
                                                     (adapter_fusion_layer): ModuleDict()
                                                     (layer_text_task_adapters): ModuleDict()
                                                     (layer_text_lang_adapters): ModuleDict()
                                                   )
                                                 )
                                                 (5): BertLayer(
                                                   (attention): BertAttention(
                                                     (self): BertSelfAttention(
                                                       (query): Linear(in_features=768, out_features=768, bias=True)
                                                       (key): Linear(in_features=768, out_features=768, bias=True)
                                                       (value): Linear(in_features=768, out_features=768, bias=True)
                                                       (dropout): Dropout(p=0.1, inplace=False)
                                                     )
                                                     (output): BertSelfOutput(
                                                       (dense): Linear(in_features=768, out_features=768, bias=True)
                                                       (LayerNorm): LayerNorm((768,), eps=1e-12, elementwise_affine=True)
                                                       (dropout): Dropout(p=0.1, inplace=False)
                                                       (attention_text_task_adapters): ModuleDict()
                                                       (adapter_fusion_layer): ModuleDict()
                                                       (attention_text_lang_adapters): ModuleDict()
                                                     )
                                                   )
                                                   (intermediate): BertIntermediate(
                                                     (dense): Linear(in_features=768, out_features=3072, bias=True)
                                                   )
                                                   (output): BertOutput(
                                                     (dense): Linear(in_features=3072, out_features=768, bias=True)
                                                     (LayerNorm): LayerNorm((768,), eps=1e-12, elementwise_affine=True)
                                                     (dropout): Dropout(p=0.1, inplace=False)
                                                     (adapter_fusion_layer): ModuleDict()
                                                     (layer_text_task_adapters): ModuleDict()
                                                     (layer_text_lang_adapters): ModuleDict()
                                                   )
                                                 )
                                                 (6): BertLayer(
                                                   (attention): BertAttention(
                                                     (self): BertSelfAttention(
                                                       (query): Linear(in_features=768, out_features=768, bias=True)
                                                       (key): Linear(in_features=768, out_features=768, bias=True)
                                                       (value): Linear(in_features=768, out_features=768, bias=True)
                                                       (dropout): Dropout(p=0.1, inplace=False)
                                                     )
                                                     (output): BertSelfOutput(
                                                       (dense): Linear(in_features=768, out_features=768, bias=True)
                                                       (LayerNorm): LayerNorm((768,), eps=1e-12, elementwise_affine=True)
                                                       (dropout): Dropout(p=0.1, inplace=False)
                                                       (attention_text_task_adapters): ModuleDict()
                                                       (adapter_fusion_layer): ModuleDict()
                                                       (attention_text_lang_adapters): ModuleDict()
                                                     )
                                                   )
                                                   (intermediate): BertIntermediate(
                                                     (dense): Linear(in_features=768, out_features=3072, bias=True)
                                                   )
                                                   (output): BertOutput(
                                                     (dense): Linear(in_features=3072, out_features=768, bias=True)
                                                     (LayerNorm): LayerNorm((768,), eps=1e-12, elementwise_affine=True)
                                                     (dropout): Dropout(p=0.1, inplace=False)
                                                     (adapter_fusion_layer): ModuleDict()
                                                     (layer_text_task_adapters): ModuleDict()
                                                     (layer_text_lang_adapters): ModuleDict()
                                                   )
                                                 )
                                                 (7): BertLayer(
                                                   (attention): BertAttention(
                                                     (self): BertSelfAttention(
                                                       (query): Linear(in_features=768, out_features=768, bias=True)
                                                       (key): Linear(in_features=768, out_features=768, bias=True)
                                                       (value): Linear(in_features=768, out_features=768, bias=True)
                                                       (dropout): Dropout(p=0.1, inplace=False)
                                                     )
                                                     (output): BertSelfOutput(
                                                       (dense): Linear(in_features=768, out_features=768, bias=True)
                                                       (LayerNorm): LayerNorm((768,), eps=1e-12, elementwise_affine=True)
                                                       (dropout): Dropout(p=0.1, inplace=False)
                                                       (attention_text_task_adapters): ModuleDict()
                                                       (adapter_fusion_layer): ModuleDict()
                                                       (attention_text_lang_adapters): ModuleDict()
                                                     )
                                                   )
                                                   (intermediate): BertIntermediate(
                                                     (dense): Linear(in_features=768, out_features=3072, bias=True)
                                                   )
                                                   (output): BertOutput(
                                                     (dense): Linear(in_features=3072, out_features=768, bias=True)
                                                     (LayerNorm): LayerNorm((768,), eps=1e-12, elementwise_affine=True)
                                                     (dropout): Dropout(p=0.1, inplace=False)
                                                     (adapter_fusion_layer): ModuleDict()
                                                     (layer_text_task_adapters): ModuleDict()
                                                     (layer_text_lang_adapters): ModuleDict()
                                                   )
                                                 )
                                                 (8): BertLayer(
                                                   (attention): BertAttention(
                                                     (self): BertSelfAttention(
                                                       (query): Linear(in_features=768, out_features=768, bias=True)
                                                       (key): Linear(in_features=768, out_features=768, bias=True)
                                                       (value): Linear(in_features=768, out_features=768, bias=True)
                                                       (dropout): Dropout(p=0.1, inplace=False)
                                                     )
                                                     (output): BertSelfOutput(
                                                       (dense): Linear(in_features=768, out_features=768, bias=True)
                                                       (LayerNorm): LayerNorm((768,), eps=1e-12, elementwise_affine=True)
                                                       (dropout): Dropout(p=0.1, inplace=False)
                                                       (attention_text_task_adapters): ModuleDict()
                                                       (adapter_fusion_layer): ModuleDict()
                                                       (attention_text_lang_adapters): ModuleDict()
                                                     )
                                                   )
                                                   (intermediate): BertIntermediate(
                                                     (dense): Linear(in_features=768, out_features=3072, bias=True)
                                                   )
                                                   (output): BertOutput(
                                                     (dense): Linear(in_features=3072, out_features=768, bias=True)
                                                     (LayerNorm): LayerNorm((768,), eps=1e-12, elementwise_affine=True)
                                                     (dropout): Dropout(p=0.1, inplace=False)
                                                     (adapter_fusion_layer): ModuleDict()
                                                     (layer_text_task_adapters): ModuleDict()
                                                     (layer_text_lang_adapters): ModuleDict()
                                                   )
                                                 )
                                                 (9): BertLayer(
                                                   (attention): BertAttention(
                                                     (self): BertSelfAttention(
                                                       (query): Linear(in_features=768, out_features=768, bias=True)
                                                       (key): Linear(in_features=768, out_features=768, bias=True)
                                                       (value): Linear(in_features=768, out_features=768, bias=True)
                                                       (dropout): Dropout(p=0.1, inplace=False)
                                                     )
                                                     (output): BertSelfOutput(
                                                       (dense): Linear(in_features=768, out_features=768, bias=True)
                                                       (LayerNorm): LayerNorm((768,), eps=1e-12, elementwise_affine=True)
                                                       (dropout): Dropout(p=0.1, inplace=False)
                                                       (attention_text_task_adapters): ModuleDict()
                                                       (adapter_fusion_layer): ModuleDict()
                                                       (attention_text_lang_adapters): ModuleDict()
                                                     )
                                                   )
                                                   (intermediate): BertIntermediate(
                                                     (dense): Linear(in_features=768, out_features=3072, bias=True)
                                                   )
                                                   (output): BertOutput(
                                                     (dense): Linear(in_features=3072, out_features=768, bias=True)
                                                     (LayerNorm): LayerNorm((768,), eps=1e-12, elementwise_affine=True)
                                                     (dropout): Dropout(p=0.1, inplace=False)
                                                     (adapter_fusion_layer): ModuleDict()
                                                     (layer_text_task_adapters): ModuleDict()
                                                     (layer_text_lang_adapters): ModuleDict()
                                                   )
                                                 )
                                                 (10): BertLayer(
                                                   (attention): BertAttention(
                                                     (self): BertSelfAttention(
                                                       (query): Linear(in_features=768, out_features=768, bias=True)
                                                       (key): Linear(in_features=768, out_features=768, bias=True)
                                                       (value): Linear(in_features=768, out_features=768, bias=True)
                                                       (dropout): Dropout(p=0.1, inplace=False)
                                                     )
                                                     (output): BertSelfOutput(
                                                       (dense): Linear(in_features=768, out_features=768, bias=True)
                                                       (LayerNorm): LayerNorm((768,), eps=1e-12, elementwise_affine=True)
                                                       (dropout): Dropout(p=0.1, inplace=False)
                                                       (attention_text_task_adapters): ModuleDict()
                                                       (adapter_fusion_layer): ModuleDict()
                                                       (attention_text_lang_adapters): ModuleDict()
                                                     )
                                                   )
                                                   (intermediate): BertIntermediate(
                                                     (dense): Linear(in_features=768, out_features=3072, bias=True)
                                                   )
                                                   (output): BertOutput(
                                                     (dense): Linear(in_features=3072, out_features=768, bias=True)
                                                     (LayerNorm): LayerNorm((768,), eps=1e-12, elementwise_affine=True)
                                                     (dropout): Dropout(p=0.1, inplace=False)
                                                     (adapter_fusion_layer): ModuleDict()
                                                     (layer_text_task_adapters): ModuleDict()
                                                     (layer_text_lang_adapters): ModuleDict()
                                                   )
                                                 )
                                                 (11): BertLayer(
                                                   (attention): BertAttention(
                                                     (self): BertSelfAttention(
                                                       (query): Linear(in_features=768, out_features=768, bias=True)
                                                       (key): Linear(in_features=768, out_features=768, bias=True)
                                                       (value): Linear(in_features=768, out_features=768, bias=True)
                                                       (dropout): Dropout(p=0.1, inplace=False)
                                                     )
                                                     (output): BertSelfOutput(
                                                       (dense): Linear(in_features=768, out_features=768, bias=True)
                                                       (LayerNorm): LayerNorm((768,), eps=1e-12, elementwise_affine=True)
                                                       (dropout): Dropout(p=0.1, inplace=False)
                                                       (attention_text_task_adapters): ModuleDict()
                                                       (adapter_fusion_layer): ModuleDict()
                                                       (attention_text_lang_adapters): ModuleDict()
                                                     )
                                                   )
                                                   (intermediate): BertIntermediate(
                                                     (dense): Linear(in_features=768, out_features=3072, bias=True)
                                                   )
                                                   (output): BertOutput(
                                                     (dense): Linear(in_features=3072, out_features=768, bias=True)
                                                     (LayerNorm): LayerNorm((768,), eps=1e-12, elementwise_affine=True)
                                                     (dropout): Dropout(p=0.1, inplace=False)
                                                     (adapter_fusion_layer): ModuleDict()
                                                     (layer_text_task_adapters): ModuleDict()
                                                     (layer_text_lang_adapters): ModuleDict()
                                                   )
                                                 )
                                               )
                                             )
                                             (pooler): BertPooler(
                                               (dense): Linear(in_features=768, out_features=768, bias=True)
                                               (activation): Tanh()
                                             )
                                             (invertible_lang_adapters): ModuleDict()
                                           )
                                         )
                                         (audio_enc): AudioEncoder(
                                           (conv_layers): ModuleList(
                                             (0): Conv1d(96, 96, kernel_size=(128,), stride=(2,))
                                             (1): Conv1d(96, 96, kernel_size=(128,), stride=(2,))
                                             (2): AdaptiveAvgPool1d(output_size=200)
                                           )
                                         )
                                         (proj_poster): Linear(in_features=4096, out_features=768, bias=False)
                                         (proj2_poster): Linear(in_features=4096, out_features=768, bias=False)
                                         (proj_l_e): Linear(in_features=768, out_features=768, bias=False)
                                         (proj_v_e): Linear(in_features=4096, out_features=768, bias=False)
                                         (proj_a_e): Linear(in_features=96, out_features=768, bias=False)
                                         (proj_l): Conv1d(768, 768, kernel_size=(1,), stride=(1,), bias=False)
                                         (proj_v): Conv1d(4096, 768, kernel_size=(1,), stride=(1,), bias=False)
                                         (proj_a): Conv1d(96, 768, kernel_size=(1,), stride=(1,), bias=False)
                                         (trans_l_with_a): TransformerEncoder(
                                           (embed_positions): SinusoidalPositionalEmbedding()
                                           (layers): ModuleList(
                                             (0): TransformerEncoderLayer(
                                               (self_attn): MultiheadAttention(
                                                 (out_proj): Linear(in_features=768, out_features=768, bias=True)
                                               )
                                               (fc1): Linear(in_features=768, out_features=3072, bias=True)
                                               (fc2): Linear(in_features=3072, out_features=768, bias=True)
                                               (layer_norms): ModuleList(
                                                 (0): LayerNorm((768,), eps=1e-05, elementwise_affine=True)
                                                 (1): LayerNorm((768,), eps=1e-05, elementwise_affine=True)
                                               )
                                             )
                                             (1): TransformerEncoderLayer(
                                               (self_attn): MultiheadAttention(
                                                 (out_proj): Linear(in_features=768, out_features=768, bias=True)
                                               )
                                               (fc1): Linear(in_features=768, out_features=3072, bias=True)
                                               (fc2): Linear(in_features=3072, out_features=768, bias=True)
                                               (layer_norms): ModuleList(
                                                 (0): LayerNorm((768,), eps=1e-05, elementwise_affine=True)
                                                 (1): LayerNorm((768,), eps=1e-05, elementwise_affine=True)
                                               )
                                             )
                                             (2): TransformerEncoderLayer(
                                               (self_attn): MultiheadAttention(
                                                 (out_proj): Linear(in_features=768, out_features=768, bias=True)
                                               )
                                               (fc1): Linear(in_features=768, out_features=3072, bias=True)
                                               (fc2): Linear(in_features=3072, out_features=768, bias=True)
                                               (layer_norms): ModuleList(
                                                 (0): LayerNorm((768,), eps=1e-05, elementwise_affine=True)
                                                 (1): LayerNorm((768,), eps=1e-05, elementwise_affine=True)
                                               )
                                             )
                                             (3): TransformerEncoderLayer(
                                               (self_attn): MultiheadAttention(
                                                 (out_proj): Linear(in_features=768, out_features=768, bias=True)
                                               )
                                               (fc1): Linear(in_features=768, out_features=3072, bias=True)
                                               (fc2): Linear(in_features=3072, out_features=768, bias=True)
                                               (layer_norms): ModuleList(
                                                 (0): LayerNorm((768,), eps=1e-05, elementwise_affine=True)
                                                 (1): LayerNorm((768,), eps=1e-05, elementwise_affine=True)
                                               )
                                             )
                                             (4): TransformerEncoderLayer(
                                               (self_attn): MultiheadAttention(
                                                 (out_proj): Linear(in_features=768, out_features=768, bias=True)
                                               )
                                               (fc1): Linear(in_features=768, out_features=3072, bias=True)
                                               (fc2): Linear(in_features=3072, out_features=768, bias=True)
                                               (layer_norms): ModuleList(
                                                 (0): LayerNorm((768,), eps=1e-05, elementwise_affine=True)
                                                 (1): LayerNorm((768,), eps=1e-05, elementwise_affine=True)
                                               )
                                             )
                                           )
                                           (layer_norm): LayerNorm((768,), eps=1e-05, elementwise_affine=True)
                                         )
                                         (trans_l_with_v): TransformerEncoder(
                                           (embed_positions): SinusoidalPositionalEmbedding()
                                           (layers): ModuleList(
                                             (0): TransformerEncoderLayer(
                                               (self_attn): MultiheadAttention(
                                                 (out_proj): Linear(in_features=768, out_features=768, bias=True)
                                               )
                                               (fc1): Linear(in_features=768, out_features=3072, bias=True)
                                               (fc2): Linear(in_features=3072, out_features=768, bias=True)
                                               (layer_norms): ModuleList(
                                                 (0): LayerNorm((768,), eps=1e-05, elementwise_affine=True)
                                                 (1): LayerNorm((768,), eps=1e-05, elementwise_affine=True)
                                               )
                                             )
                                             (1): TransformerEncoderLayer(
                                               (self_attn): MultiheadAttention(
                                                 (out_proj): Linear(in_features=768, out_features=768, bias=True)
                                               )
                                               (fc1): Linear(in_features=768, out_features=3072, bias=True)
                                               (fc2): Linear(in_features=3072, out_features=768, bias=True)
                                               (layer_norms): ModuleList(
                                                 (0): LayerNorm((768,), eps=1e-05, elementwise_affine=True)
                                                 (1): LayerNorm((768,), eps=1e-05, elementwise_affine=True)
                                               )
                                             )
                                             (2): TransformerEncoderLayer(
                                               (self_attn): MultiheadAttention(
                                                 (out_proj): Linear(in_features=768, out_features=768, bias=True)
                                               )
                                               (fc1): Linear(in_features=768, out_features=3072, bias=True)
                                               (fc2): Linear(in_features=3072, out_features=768, bias=True)
                                               (layer_norms): ModuleList(
                                                 (0): LayerNorm((768,), eps=1e-05, elementwise_affine=True)
                                                 (1): LayerNorm((768,), eps=1e-05, elementwise_affine=True)
                                               )
                                             )
                                             (3): TransformerEncoderLayer(
                                               (self_attn): MultiheadAttention(
                                                 (out_proj): Linear(in_features=768, out_features=768, bias=True)
                                               )
                                               (fc1): Linear(in_features=768, out_features=3072, bias=True)
                                               (fc2): Linear(in_features=3072, out_features=768, bias=True)
                                               (layer_norms): ModuleList(
                                                 (0): LayerNorm((768,), eps=1e-05, elementwise_affine=True)
                                                 (1): LayerNorm((768,), eps=1e-05, elementwise_affine=True)
                                               )
                                             )
                                             (4): TransformerEncoderLayer(
                                               (self_attn): MultiheadAttention(
                                                 (out_proj): Linear(in_features=768, out_features=768, bias=True)
                                               )
                                               (fc1): Linear(in_features=768, out_features=3072, bias=True)
                                               (fc2): Linear(in_features=3072, out_features=768, bias=True)
                                               (layer_norms): ModuleList(
                                                 (0): LayerNorm((768,), eps=1e-05, elementwise_affine=True)
                                                 (1): LayerNorm((768,), eps=1e-05, elementwise_affine=True)
                                               )
                                             )
                                           )
                                           (layer_norm): LayerNorm((768,), eps=1e-05, elementwise_affine=True)
                                         )
                                         (trans_v_with_l): TransformerEncoder(
                                           (embed_positions): SinusoidalPositionalEmbedding()
                                           (layers): ModuleList(
                                             (0): TransformerEncoderLayer(
                                               (self_attn): MultiheadAttention(
                                                 (out_proj): Linear(in_features=768, out_features=768, bias=True)
                                               )
                                               (fc1): Linear(in_features=768, out_features=3072, bias=True)
                                               (fc2): Linear(in_features=3072, out_features=768, bias=True)
                                               (layer_norms): ModuleList(
                                                 (0): LayerNorm((768,), eps=1e-05, elementwise_affine=True)
                                                 (1): LayerNorm((768,), eps=1e-05, elementwise_affine=True)
                                               )
                                             )
                                             (1): TransformerEncoderLayer(
                                               (self_attn): MultiheadAttention(
                                                 (out_proj): Linear(in_features=768, out_features=768, bias=True)
                                               )
                                               (fc1): Linear(in_features=768, out_features=3072, bias=True)
                                               (fc2): Linear(in_features=3072, out_features=768, bias=True)
                                               (layer_norms): ModuleList(
                                                 (0): LayerNorm((768,), eps=1e-05, elementwise_affine=True)
                                                 (1): LayerNorm((768,), eps=1e-05, elementwise_affine=True)
                                               )
                                             )
                                             (2): TransformerEncoderLayer(
                                               (self_attn): MultiheadAttention(
                                                 (out_proj): Linear(in_features=768, out_features=768, bias=True)
                                               )
                                               (fc1): Linear(in_features=768, out_features=3072, bias=True)
                                               (fc2): Linear(in_features=3072, out_features=768, bias=True)
                                               (layer_norms): ModuleList(
                                                 (0): LayerNorm((768,), eps=1e-05, elementwise_affine=True)
                                                 (1): LayerNorm((768,), eps=1e-05, elementwise_affine=True)
                                               )
                                             )
                                             (3): TransformerEncoderLayer(
                                               (self_attn): MultiheadAttention(
                                                 (out_proj): Linear(in_features=768, out_features=768, bias=True)
                                               )
                                               (fc1): Linear(in_features=768, out_features=3072, bias=True)
                                               (fc2): Linear(in_features=3072, out_features=768, bias=True)
                                               (layer_norms): ModuleList(
                                                 (0): LayerNorm((768,), eps=1e-05, elementwise_affine=True)
                                                 (1): LayerNorm((768,), eps=1e-05, elementwise_affine=True)
                                               )
                                             )
                                             (4): TransformerEncoderLayer(
                                               (self_attn): MultiheadAttention(
                                                 (out_proj): Linear(in_features=768, out_features=768, bias=True)
                                               )
                                               (fc1): Linear(in_features=768, out_features=3072, bias=True)
                                               (fc2): Linear(in_features=3072, out_features=768, bias=True)
                                               (layer_norms): ModuleList(
                                                 (0): LayerNorm((768,), eps=1e-05, elementwise_affine=True)
                                                 (1): LayerNorm((768,), eps=1e-05, elementwise_affine=True)
                                               )
                                             )
                                           )
                                           (layer_norm): LayerNorm((768,), eps=1e-05, elementwise_affine=True)
                                         )
                                         (trans_v_with_a): TransformerEncoder(
                                           (embed_positions): SinusoidalPositionalEmbedding()
                                           (layers): ModuleList(
                                             (0): TransformerEncoderLayer(
                                               (self_attn): MultiheadAttention(
                                                 (out_proj): Linear(in_features=768, out_features=768, bias=True)
                                               )
                                               (fc1): Linear(in_features=768, out_features=3072, bias=True)
                                               (fc2): Linear(in_features=3072, out_features=768, bias=True)
                                               (layer_norms): ModuleList(
                                                 (0): LayerNorm((768,), eps=1e-05, elementwise_affine=True)
                                                 (1): LayerNorm((768,), eps=1e-05, elementwise_affine=True)
                                               )
                                             )
                                             (1): TransformerEncoderLayer(
                                               (self_attn): MultiheadAttention(
                                                 (out_proj): Linear(in_features=768, out_features=768, bias=True)
                                               )
                                               (fc1): Linear(in_features=768, out_features=3072, bias=True)
                                               (fc2): Linear(in_features=3072, out_features=768, bias=True)
                                               (layer_norms): ModuleList(
                                                 (0): LayerNorm((768,), eps=1e-05, elementwise_affine=True)
                                                 (1): LayerNorm((768,), eps=1e-05, elementwise_affine=True)
                                               )
                                             )
                                             (2): TransformerEncoderLayer(
                                               (self_attn): MultiheadAttention(
                                                 (out_proj): Linear(in_features=768, out_features=768, bias=True)
                                               )
                                               (fc1): Linear(in_features=768, out_features=3072, bias=True)
                                               (fc2): Linear(in_features=3072, out_features=768, bias=True)
                                               (layer_norms): ModuleList(
                                                 (0): LayerNorm((768,), eps=1e-05, elementwise_affine=True)
                                                 (1): LayerNorm((768,), eps=1e-05, elementwise_affine=True)
                                               )
                                             )
                                             (3): TransformerEncoderLayer(
                                               (self_attn): MultiheadAttention(
                                                 (out_proj): Linear(in_features=768, out_features=768, bias=True)
                                               )
                                               (fc1): Linear(in_features=768, out_features=3072, bias=True)
                                               (fc2): Linear(in_features=3072, out_features=768, bias=True)
                                               (layer_norms): ModuleList(
                                                 (0): LayerNorm((768,), eps=1e-05, elementwise_affine=True)
                                                 (1): LayerNorm((768,), eps=1e-05, elementwise_affine=True)
                                               )
                                             )
                                             (4): TransformerEncoderLayer(
                                               (self_attn): MultiheadAttention(
                                                 (out_proj): Linear(in_features=768, out_features=768, bias=True)
                                               )
                                               (fc1): Linear(in_features=768, out_features=3072, bias=True)
                                               (fc2): Linear(in_features=3072, out_features=768, bias=True)
                                               (layer_norms): ModuleList(
                                                 (0): LayerNorm((768,), eps=1e-05, elementwise_affine=True)
                                                 (1): LayerNorm((768,), eps=1e-05, elementwise_affine=True)
                                               )
                                             )
                                           )
                                           (layer_norm): LayerNorm((768,), eps=1e-05, elementwise_affine=True)
                                         )
                                         (trans_a_with_l): TransformerEncoder(
                                           (embed_positions): SinusoidalPositionalEmbedding()
                                           (layers): ModuleList(
                                             (0): TransformerEncoderLayer(
                                               (self_attn): MultiheadAttention(
                                                 (out_proj): Linear(in_features=768, out_features=768, bias=True)
                                               )
                                               (fc1): Linear(in_features=768, out_features=3072, bias=True)
                                               (fc2): Linear(in_features=3072, out_features=768, bias=True)
                                               (layer_norms): ModuleList(
                                                 (0): LayerNorm((768,), eps=1e-05, elementwise_affine=True)
                                                 (1): LayerNorm((768,), eps=1e-05, elementwise_affine=True)
                                               )
                                             )
                                             (1): TransformerEncoderLayer(
                                               (self_attn): MultiheadAttention(
                                                 (out_proj): Linear(in_features=768, out_features=768, bias=True)
                                               )
                                               (fc1): Linear(in_features=768, out_features=3072, bias=True)
                                               (fc2): Linear(in_features=3072, out_features=768, bias=True)
                                               (layer_norms): ModuleList(
                                                 (0): LayerNorm((768,), eps=1e-05, elementwise_affine=True)
                                                 (1): LayerNorm((768,), eps=1e-05, elementwise_affine=True)
                                               )
                                             )
                                             (2): TransformerEncoderLayer(
                                               (self_attn): MultiheadAttention(
                                                 (out_proj): Linear(in_features=768, out_features=768, bias=True)
                                               )
                                               (fc1): Linear(in_features=768, out_features=3072, bias=True)
                                               (fc2): Linear(in_features=3072, out_features=768, bias=True)
                                               (layer_norms): ModuleList(
                                                 (0): LayerNorm((768,), eps=1e-05, elementwise_affine=True)
                                                 (1): LayerNorm((768,), eps=1e-05, elementwise_affine=True)
                                               )
                                             )
                                             (3): TransformerEncoderLayer(
                                               (self_attn): MultiheadAttention(
                                                 (out_proj): Linear(in_features=768, out_features=768, bias=True)
                                               )
                                               (fc1): Linear(in_features=768, out_features=3072, bias=True)
                                               (fc2): Linear(in_features=3072, out_features=768, bias=True)
                                               (layer_norms): ModuleList(
                                                 (0): LayerNorm((768,), eps=1e-05, elementwise_affine=True)
                                                 (1): LayerNorm((768,), eps=1e-05, elementwise_affine=True)
                                               )
                                             )
                                             (4): TransformerEncoderLayer(
                                               (self_attn): MultiheadAttention(
                                                 (out_proj): Linear(in_features=768, out_features=768, bias=True)
                                               )
                                               (fc1): Linear(in_features=768, out_features=3072, bias=True)
                                               (fc2): Linear(in_features=3072, out_features=768, bias=True)
                                               (layer_norms): ModuleList(
                                                 (0): LayerNorm((768,), eps=1e-05, elementwise_affine=True)
                                                 (1): LayerNorm((768,), eps=1e-05, elementwise_affine=True)
                                               )
                                             )
                                           )
                                           (layer_norm): LayerNorm((768,), eps=1e-05, elementwise_affine=True)
                                         )
                                         (trans_a_with_v): TransformerEncoder(
                                           (embed_positions): SinusoidalPositionalEmbedding()
                                           (layers): ModuleList(
                                             (0): TransformerEncoderLayer(
                                               (self_attn): MultiheadAttention(
                                                 (out_proj): Linear(in_features=768, out_features=768, bias=True)
                                               )
                                               (fc1): Linear(in_features=768, out_features=3072, bias=True)
                                               (fc2): Linear(in_features=3072, out_features=768, bias=True)
                                               (layer_norms): ModuleList(
                                                 (0): LayerNorm((768,), eps=1e-05, elementwise_affine=True)
                                                 (1): LayerNorm((768,), eps=1e-05, elementwise_affine=True)
                                               )
                                             )
                                             (1): TransformerEncoderLayer(
                                               (self_attn): MultiheadAttention(
                                                 (out_proj): Linear(in_features=768, out_features=768, bias=True)
                                               )
                                               (fc1): Linear(in_features=768, out_features=3072, bias=True)
                                               (fc2): Linear(in_features=3072, out_features=768, bias=True)
                                               (layer_norms): ModuleList(
                                                 (0): LayerNorm((768,), eps=1e-05, elementwise_affine=True)
                                                 (1): LayerNorm((768,), eps=1e-05, elementwise_affine=True)
                                               )
                                             )
                                             (2): TransformerEncoderLayer(
                                               (self_attn): MultiheadAttention(
                                                 (out_proj): Linear(in_features=768, out_features=768, bias=True)
                                               )
                                               (fc1): Linear(in_features=768, out_features=3072, bias=True)
                                               (fc2): Linear(in_features=3072, out_features=768, bias=True)
                                               (layer_norms): ModuleList(
                                                 (0): LayerNorm((768,), eps=1e-05, elementwise_affine=True)
                                                 (1): LayerNorm((768,), eps=1e-05, elementwise_affine=True)
                                               )
                                             )
                                             (3): TransformerEncoderLayer(
                                               (self_attn): MultiheadAttention(
                                                 (out_proj): Linear(in_features=768, out_features=768, bias=True)
                                               )
                                               (fc1): Linear(in_features=768, out_features=3072, bias=True)
                                               (fc2): Linear(in_features=3072, out_features=768, bias=True)
                                               (layer_norms): ModuleList(
                                                 (0): LayerNorm((768,), eps=1e-05, elementwise_affine=True)
                                                 (1): LayerNorm((768,), eps=1e-05, elementwise_affine=True)
                                               )
                                             )
                                             (4): TransformerEncoderLayer(
                                               (self_attn): MultiheadAttention(
                                                 (out_proj): Linear(in_features=768, out_features=768, bias=True)
                                               )
                                               (fc1): Linear(in_features=768, out_features=3072, bias=True)
                                               (fc2): Linear(in_features=3072, out_features=768, bias=True)
                                               (layer_norms): ModuleList(
                                                 (0): LayerNorm((768,), eps=1e-05, elementwise_affine=True)
                                                 (1): LayerNorm((768,), eps=1e-05, elementwise_affine=True)
                                               )
                                             )
                                           )
                                           (layer_norm): LayerNorm((768,), eps=1e-05, elementwise_affine=True)
                                         )
                                         (trans_l_mem): TransformerEncoder(
                                           (embed_positions): SinusoidalPositionalEmbedding()
                                           (layers): ModuleList(
                                             (0): TransformerEncoderLayer(
                                               (self_attn): MultiheadAttention(
                                                 (out_proj): Linear(in_features=1536, out_features=1536, bias=True)
                                               )
                                               (fc1): Linear(in_features=1536, out_features=6144, bias=True)
                                               (fc2): Linear(in_features=6144, out_features=1536, bias=True)
                                               (layer_norms): ModuleList(
                                                 (0): LayerNorm((1536,), eps=1e-05, elementwise_affine=True)
                                                 (1): LayerNorm((1536,), eps=1e-05, elementwise_affine=True)
                                               )
                                             )
                                             (1): TransformerEncoderLayer(
                                               (self_attn): MultiheadAttention(
                                                 (out_proj): Linear(in_features=1536, out_features=1536, bias=True)
                                               )
                                               (fc1): Linear(in_features=1536, out_features=6144, bias=True)
                                               (fc2): Linear(in_features=6144, out_features=1536, bias=True)
                                               (layer_norms): ModuleList(
                                                 (0): LayerNorm((1536,), eps=1e-05, elementwise_affine=True)
                                                 (1): LayerNorm((1536,), eps=1e-05, elementwise_affine=True)
                                               )
                                             )
                                             (2): TransformerEncoderLayer(
                                               (self_attn): MultiheadAttention(
                                                 (out_proj): Linear(in_features=1536, out_features=1536, bias=True)
                                               )
                                               (fc1): Linear(in_features=1536, out_features=6144, bias=True)
                                               (fc2): Linear(in_features=6144, out_features=1536, bias=True)
                                               (layer_norms): ModuleList(
                                                 (0): LayerNorm((1536,), eps=1e-05, elementwise_affine=True)
                                                 (1): LayerNorm((1536,), eps=1e-05, elementwise_affine=True)
                                               )
                                             )
                                             (3): TransformerEncoderLayer(
                                               (self_attn): MultiheadAttention(
                                                 (out_proj): Linear(in_features=1536, out_features=1536, bias=True)
                                               )
                                               (fc1): Linear(in_features=1536, out_features=6144, bias=True)
                                               (fc2): Linear(in_features=6144, out_features=1536, bias=True)
                                               (layer_norms): ModuleList(
                                                 (0): LayerNorm((1536,), eps=1e-05, elementwise_affine=True)
                                                 (1): LayerNorm((1536,), eps=1e-05, elementwise_affine=True)
                                               )
                                             )
                                             (4): TransformerEncoderLayer(
                                               (self_attn): MultiheadAttention(
                                                 (out_proj): Linear(in_features=1536, out_features=1536, bias=True)
                                               )
                                               (fc1): Linear(in_features=1536, out_features=6144, bias=True)
                                               (fc2): Linear(in_features=6144, out_features=1536, bias=True)
                                               (layer_norms): ModuleList(
                                                 (0): LayerNorm((1536,), eps=1e-05, elementwise_affine=True)
                                                 (1): LayerNorm((1536,), eps=1e-05, elementwise_affine=True)
                                               )
                                             )
                                           )
                                           (layer_norm): LayerNorm((1536,), eps=1e-05, elementwise_affine=True)
                                         )
                                         (trans_v_mem): TransformerEncoder(
                                           (embed_positions): SinusoidalPositionalEmbedding()
                                           (layers): ModuleList(
                                             (0): TransformerEncoderLayer(
                                               (self_attn): MultiheadAttention(
                                                 (out_proj): Linear(in_features=1536, out_features=1536, bias=True)
                                               )
                                               (fc1): Linear(in_features=1536, out_features=6144, bias=True)
                                               (fc2): Linear(in_features=6144, out_features=1536, bias=True)
                                               (layer_norms): ModuleList(
                                                 (0): LayerNorm((1536,), eps=1e-05, elementwise_affine=True)
                                                 (1): LayerNorm((1536,), eps=1e-05, elementwise_affine=True)
                                               )
                                             )
                                             (1): TransformerEncoderLayer(
                                               (self_attn): MultiheadAttention(
                                                 (out_proj): Linear(in_features=1536, out_features=1536, bias=True)
                                               )
                                               (fc1): Linear(in_features=1536, out_features=6144, bias=True)
                                               (fc2): Linear(in_features=6144, out_features=1536, bias=True)
                                               (layer_norms): ModuleList(
                                                 (0): LayerNorm((1536,), eps=1e-05, elementwise_affine=True)
                                                 (1): LayerNorm((1536,), eps=1e-05, elementwise_affine=True)
                                               )
                                             )
                                             (2): TransformerEncoderLayer(
                                               (self_attn): MultiheadAttention(
                                                 (out_proj): Linear(in_features=1536, out_features=1536, bias=True)
                                               )
                                               (fc1): Linear(in_features=1536, out_features=6144, bias=True)
                                               (fc2): Linear(in_features=6144, out_features=1536, bias=True)
                                               (layer_norms): ModuleList(
                                                 (0): LayerNorm((1536,), eps=1e-05, elementwise_affine=True)
                                                 (1): LayerNorm((1536,), eps=1e-05, elementwise_affine=True)
                                               )
                                             )
                                             (3): TransformerEncoderLayer(
                                               (self_attn): MultiheadAttention(
                                                 (out_proj): Linear(in_features=1536, out_features=1536, bias=True)
                                               )
                                               (fc1): Linear(in_features=1536, out_features=6144, bias=True)
                                               (fc2): Linear(in_features=6144, out_features=1536, bias=True)
                                               (layer_norms): ModuleList(
                                                 (0): LayerNorm((1536,), eps=1e-05, elementwise_affine=True)
                                                 (1): LayerNorm((1536,), eps=1e-05, elementwise_affine=True)
                                               )
                                             )
                                             (4): TransformerEncoderLayer(
                                               (self_attn): MultiheadAttention(
                                                 (out_proj): Linear(in_features=1536, out_features=1536, bias=True)
                                               )
                                               (fc1): Linear(in_features=1536, out_features=6144, bias=True)
                                               (fc2): Linear(in_features=6144, out_features=1536, bias=True)
                                               (layer_norms): ModuleList(
                                                 (0): LayerNorm((1536,), eps=1e-05, elementwise_affine=True)
                                                 (1): LayerNorm((1536,), eps=1e-05, elementwise_affine=True)
                                               )
                                             )
                                           )
                                           (layer_norm): LayerNorm((1536,), eps=1e-05, elementwise_affine=True)
                                         )
                                         (trans_a_mem): TransformerEncoder(
                                           (embed_positions): SinusoidalPositionalEmbedding()
                                           (layers): ModuleList(
                                             (0): TransformerEncoderLayer(
                                               (self_attn): MultiheadAttention(
                                                 (out_proj): Linear(in_features=1536, out_features=1536, bias=True)
                                               )
                                               (fc1): Linear(in_features=1536, out_features=6144, bias=True)
                                               (fc2): Linear(in_features=6144, out_features=1536, bias=True)
                                               (layer_norms): ModuleList(
                                                 (0): LayerNorm((1536,), eps=1e-05, elementwise_affine=True)
                                                 (1): LayerNorm((1536,), eps=1e-05, elementwise_affine=True)
                                               )
                                             )
                                             (1): TransformerEncoderLayer(
                                               (self_attn): MultiheadAttention(
                                                 (out_proj): Linear(in_features=1536, out_features=1536, bias=True)
                                               )
                                               (fc1): Linear(in_features=1536, out_features=6144, bias=True)
                                               (fc2): Linear(in_features=6144, out_features=1536, bias=True)
                                               (layer_norms): ModuleList(
                                                 (0): LayerNorm((1536,), eps=1e-05, elementwise_affine=True)
                                                 (1): LayerNorm((1536,), eps=1e-05, elementwise_affine=True)
                                               )
                                             )
                                             (2): TransformerEncoderLayer(
                                               (self_attn): MultiheadAttention(
                                                 (out_proj): Linear(in_features=1536, out_features=1536, bias=True)
                                               )
                                               (fc1): Linear(in_features=1536, out_features=6144, bias=True)
                                               (fc2): Linear(in_features=6144, out_features=1536, bias=True)
                                               (layer_norms): ModuleList(
                                                 (0): LayerNorm((1536,), eps=1e-05, elementwise_affine=True)
                                                 (1): LayerNorm((1536,), eps=1e-05, elementwise_affine=True)
                                               )
                                             )
                                             (3): TransformerEncoderLayer(
                                               (self_attn): MultiheadAttention(
                                                 (out_proj): Linear(in_features=1536, out_features=1536, bias=True)
                                               )
                                               (fc1): Linear(in_features=1536, out_features=6144, bias=True)
                                               (fc2): Linear(in_features=6144, out_features=1536, bias=True)
                                               (layer_norms): ModuleList(
                                                 (0): LayerNorm((1536,), eps=1e-05, elementwise_affine=True)
                                                 (1): LayerNorm((1536,), eps=1e-05, elementwise_affine=True)
                                               )
                                             )
                                             (4): TransformerEncoderLayer(
                                               (self_attn): MultiheadAttention(
                                                 (out_proj): Linear(in_features=1536, out_features=1536, bias=True)
                                               )
                                               (fc1): Linear(in_features=1536, out_features=6144, bias=True)
                                               (fc2): Linear(in_features=6144, out_features=1536, bias=True)
                                               (layer_norms): ModuleList(
                                                 (0): LayerNorm((1536,), eps=1e-05, elementwise_affine=True)
                                                 (1): LayerNorm((1536,), eps=1e-05, elementwise_affine=True)
                                               )
                                             )
                                           )
                                           (layer_norm): LayerNorm((1536,), eps=1e-05, elementwise_affine=True)
                                         )
                                         (proj1): Linear(in_features=768, out_features=768, bias=True)
                                         (proj2): Linear(in_features=768, out_features=768, bias=True)
                                         (out_layer): Linear(in_features=768, out_features=13, bias=True)
                                         (proj12): Linear(in_features=768, out_features=768, bias=True)
                                         (proj22): Linear(in_features=768, out_features=768, bias=True)
                                         (out_layer2): Linear(in_features=768, out_features=13, bias=True)
                                         (out_layer_final): Linear(in_features=13, out_features=13, bias=True)
                                         (gmu): TextShifting4Layer(
                                           (hidden1): Linear(in_features=1536, out_features=768, bias=False)
                                           (hidden2): Linear(in_features=1536, out_features=768, bias=False)
                                           (hidden3): Linear(in_features=1536, out_features=768, bias=False)
                                           (hidden4): Linear(in_features=768, out_features=768, bias=False)
                                           (x1_gate): Linear(in_features=5376, out_features=768, bias=False)
                                           (x2_gate): Linear(in_features=5376, out_features=768, bias=False)
                                           (x3_gate): Linear(in_features=5376, out_features=768, bias=False)
                                           (x4_gate): Linear(in_features=5376, out_features=768, bias=False)
                                         )
                                         (gmuSimple): TextShifting4LayerSimple(
                                           (hidden1): Linear(in_features=768, out_features=768, bias=False)
                                           (hidden2): Linear(in_features=768, out_features=768, bias=False)
                                           (hidden3): Linear(in_features=768, out_features=768, bias=False)
                                           (hidden4): Linear(in_features=768, out_features=768, bias=False)
                                           (x1_gate): Linear(in_features=768, out_features=768, bias=False)
                                           (x2_gate): Linear(in_features=768, out_features=768, bias=False)
                                           (x3_gate): Linear(in_features=768, out_features=768, bias=False)
                                           (x4_gate): Linear(in_features=768, out_features=768, bias=False)
                                         )
                                       )
                                     )
INFO - 09/07/21 23:24:54 - 0:00:01 - Training..
INFO - 09/07/21 23:30:37 - 0:00:00 - a_len: 3
                                     adapter_size: 64
                                     aonly: True
                                     attn_dropout: 0.1
…
                                     vocab: <mmbt.data.vocab.Vocab object at 0x7fe5c16f6f10>
                                     vocab_sz: 30522
                                     vonly: True
                                     warmup: 0.1
                                     weight_classes: 1
INFO - 09/07/21 23:30:37 - 0:00:00 - DataParallel(
                                       (module): MMTransformerGMUHybridClf(
                                         (enc): BertEncoder(
                                           (bert): BertModel(
                                             (embeddings): BertEmbeddings(
                                               (word_embeddings): Embedding(30522, 768, padding_idx=0)
                                               (position_embeddings): Embedding(512, 768)
                                               (token_type_embeddings): Embedding(2, 768)
                                               (LayerNorm): LayerNorm((768,), eps=1e-12, elementwise_affine=True)
                                               (dropout): Dropout(p=0.1, inplace=False)
                                             )
                                             (encoder): BertEncoder(
                                               (layer): ModuleList(
                                                 (0): BertLayer(
                                                   (attention): BertAttention(
                                                     (self): BertSelfAttention(
                                                       (query): Linear(in_features=768, out_features=768, bias=True)
                                                       (key): Linear(in_features=768, out_features=768, bias=True)
                                                       (value): Linear(in_features=768, out_features=768, bias=True)
                                                       (dropout): Dropout(p=0.1, inplace=False)
                                                     )
                                                     (output): BertSelfOutput(
                                                       (dense): Linear(in_features=768, out_features=768, bias=True)
                                                       (LayerNorm): LayerNorm((768,), eps=1e-12, elementwise_affine=True)
                                                       (dropout): Dropout(p=0.1, inplace=False)
                                                       (attention_text_task_adapters): ModuleDict()
                                                       (adapter_fusion_layer): ModuleDict()
                                                       (attention_text_lang_adapters): ModuleDict()
                                                     )
                                                   )
                                                   (intermediate): BertIntermediate(
                                                     (dense): Linear(in_features=768, out_features=3072, bias=True)
                                                   )
                                                   (output): BertOutput(
                                                     (dense): Linear(in_features=3072, out_features=768, bias=True)
                                                     (LayerNorm): LayerNorm((768,), eps=1e-12, elementwise_affine=True)
                                                     (dropout): Dropout(p=0.1, inplace=False)
                                                     (adapter_fusion_layer): ModuleDict()
                                                     (layer_text_task_adapters): ModuleDict()
                                                     (layer_text_lang_adapters): ModuleDict()
                                                   )
                                                 )
                                                 (1): BertLayer(
                                                   (attention): BertAttention(
                                                     (self): BertSelfAttention(
                                                       (query): Linear(in_features=768, out_features=768, bias=True)
                                                       (key): Linear(in_features=768, out_features=768, bias=True)
                                                       (value): Linear(in_features=768, out_features=768, bias=True)
                                                       (dropout): Dropout(p=0.1, inplace=False)
                                                     )
                                                     (output): BertSelfOutput(
                                                       (dense): Linear(in_features=768, out_features=768, bias=True)
                                                       (LayerNorm): LayerNorm((768,), eps=1e-12, elementwise_affine=True)
                                                       (dropout): Dropout(p=0.1, inplace=False)
                                                       (attention_text_task_adapters): ModuleDict()
                                                       (adapter_fusion_layer): ModuleDict()
                                                       (attention_text_lang_adapters): ModuleDict()
                                                     )
                                                   )
                                                   (intermediate): BertIntermediate(
                                                     (dense): Linear(in_features=768, out_features=3072, bias=True)
                                                   )
                                                   (output): BertOutput(
                                                     (dense): Linear(in_features=3072, out_features=768, bias=True)
                                                     (LayerNorm): LayerNorm((768,), eps=1e-12, elementwise_affine=True)
                                                     (dropout): Dropout(p=0.1, inplace=False)
                                                     (adapter_fusion_layer): ModuleDict()
                                                     (layer_text_task_adapters): ModuleDict()
                                                     (layer_text_lang_adapters): ModuleDict()
                                                   )
                                                 )
                                                 (2): BertLayer(
                                                   (attention): BertAttention(
                                                     (self): BertSelfAttention(
                                                       (query): Linear(in_features=768, out_features=768, bias=True)
                                                       (key): Linear(in_features=768, out_features=768, bias=True)
                                                       (value): Linear(in_features=768, out_features=768, bias=True)
                                                       (dropout): Dropout(p=0.1, inplace=False)
                                                     )
                                                     (output): BertSelfOutput(
                                                       (dense): Linear(in_features=768, out_features=768, bias=True)
                                                       (LayerNorm): LayerNorm((768,), eps=1e-12, elementwise_affine=True)
                                                       (dropout): Dropout(p=0.1, inplace=False)
                                                       (attention_text_task_adapters): ModuleDict()
                                                       (adapter_fusion_layer): ModuleDict()
                                                       (attention_text_lang_adapters): ModuleDict()
                                                     )
                                                   )
                                                   (intermediate): BertIntermediate(
                                                     (dense): Linear(in_features=768, out_features=3072, bias=True)
                                                   )
                                                   (output): BertOutput(
                                                     (dense): Linear(in_features=3072, out_features=768, bias=True)
                                                     (LayerNorm): LayerNorm((768,), eps=1e-12, elementwise_affine=True)
                                                     (dropout): Dropout(p=0.1, inplace=False)
                                                     (adapter_fusion_layer): ModuleDict()
                                                     (layer_text_task_adapters): ModuleDict()
                                                     (layer_text_lang_adapters): ModuleDict()
                                                   )
                                                 )
                                                 (3): BertLayer(
                                                   (attention): BertAttention(
                                                     (self): BertSelfAttention(
                                                       (query): Linear(in_features=768, out_features=768, bias=True)
                                                       (key): Linear(in_features=768, out_features=768, bias=True)
                                                       (value): Linear(in_features=768, out_features=768, bias=True)
                                                       (dropout): Dropout(p=0.1, inplace=False)
                                                     )
                                                     (output): BertSelfOutput(
                                                       (dense): Linear(in_features=768, out_features=768, bias=True)
                                                       (LayerNorm): LayerNorm((768,), eps=1e-12, elementwise_affine=True)
                                                       (dropout): Dropout(p=0.1, inplace=False)
                                                       (attention_text_task_adapters): ModuleDict()
                                                       (adapter_fusion_layer): ModuleDict()
                                                       (attention_text_lang_adapters): ModuleDict()
                                                     )
                                                   )
                                                   (intermediate): BertIntermediate(
                                                     (dense): Linear(in_features=768, out_features=3072, bias=True)
                                                   )
                                                   (output): BertOutput(
                                                     (dense): Linear(in_features=3072, out_features=768, bias=True)
                                                     (LayerNorm): LayerNorm((768,), eps=1e-12, elementwise_affine=True)
                                                     (dropout): Dropout(p=0.1, inplace=False)
                                                     (adapter_fusion_layer): ModuleDict()
                                                     (layer_text_task_adapters): ModuleDict()
                                                     (layer_text_lang_adapters): ModuleDict()
                                                   )
                                                 )
                                                 (4): BertLayer(
                                                   (attention): BertAttention(
                                                     (self): BertSelfAttention(
                                                       (query): Linear(in_features=768, out_features=768, bias=True)
                                                       (key): Linear(in_features=768, out_features=768, bias=True)
                                                       (value): Linear(in_features=768, out_features=768, bias=True)
                                                       (dropout): Dropout(p=0.1, inplace=False)
                                                     )
                                                     (output): BertSelfOutput(
                                                       (dense): Linear(in_features=768, out_features=768, bias=True)
                                                       (LayerNorm): LayerNorm((768,), eps=1e-12, elementwise_affine=True)
                                                       (dropout): Dropout(p=0.1, inplace=False)
                                                       (attention_text_task_adapters): ModuleDict()
                                                       (adapter_fusion_layer): ModuleDict()
                                                       (attention_text_lang_adapters): ModuleDict()
                                                     )
                                                   )
                                                   (intermediate): BertIntermediate(
                                                     (dense): Linear(in_features=768, out_features=3072, bias=True)
                                                   )
                                                   (output): BertOutput(
                                                     (dense): Linear(in_features=3072, out_features=768, bias=True)
                                                     (LayerNorm): LayerNorm((768,), eps=1e-12, elementwise_affine=True)
                                                     (dropout): Dropout(p=0.1, inplace=False)
                                                     (adapter_fusion_layer): ModuleDict()
                                                     (layer_text_task_adapters): ModuleDict()
                                                     (layer_text_lang_adapters): ModuleDict()
                                                   )
                                                 )
                                                 (5): BertLayer(
                                                   (attention): BertAttention(
                                                     (self): BertSelfAttention(
                                                       (query): Linear(in_features=768, out_features=768, bias=True)
                                                       (key): Linear(in_features=768, out_features=768, bias=True)
                                                       (value): Linear(in_features=768, out_features=768, bias=True)
                                                       (dropout): Dropout(p=0.1, inplace=False)
                                                     )
                                                     (output): BertSelfOutput(
                                                       (dense): Linear(in_features=768, out_features=768, bias=True)
                                                       (LayerNorm): LayerNorm((768,), eps=1e-12, elementwise_affine=True)
                                                       (dropout): Dropout(p=0.1, inplace=False)
                                                       (attention_text_task_adapters): ModuleDict()
                                                       (adapter_fusion_layer): ModuleDict()
                                                       (attention_text_lang_adapters): ModuleDict()
                                                     )
                                                   )
                                                   (intermediate): BertIntermediate(
                                                     (dense): Linear(in_features=768, out_features=3072, bias=True)
                                                   )
                                                   (output): BertOutput(
                                                     (dense): Linear(in_features=3072, out_features=768, bias=True)
                                                     (LayerNorm): LayerNorm((768,), eps=1e-12, elementwise_affine=True)
                                                     (dropout): Dropout(p=0.1, inplace=False)
                                                     (adapter_fusion_layer): ModuleDict()
                                                     (layer_text_task_adapters): ModuleDict()
                                                     (layer_text_lang_adapters): ModuleDict()
                                                   )
                                                 )
                                                 (6): BertLayer(
                                                   (attention): BertAttention(
                                                     (self): BertSelfAttention(
                                                       (query): Linear(in_features=768, out_features=768, bias=True)
                                                       (key): Linear(in_features=768, out_features=768, bias=True)
                                                       (value): Linear(in_features=768, out_features=768, bias=True)
                                                       (dropout): Dropout(p=0.1, inplace=False)
                                                     )
                                                     (output): BertSelfOutput(
                                                       (dense): Linear(in_features=768, out_features=768, bias=True)
                                                       (LayerNorm): LayerNorm((768,), eps=1e-12, elementwise_affine=True)
                                                       (dropout): Dropout(p=0.1, inplace=False)
                                                       (attention_text_task_adapters): ModuleDict()
                                                       (adapter_fusion_layer): ModuleDict()
                                                       (attention_text_lang_adapters): ModuleDict()
                                                     )
                                                   )
                                                   (intermediate): BertIntermediate(
                                                     (dense): Linear(in_features=768, out_features=3072, bias=True)
                                                   )
                                                   (output): BertOutput(
                                                     (dense): Linear(in_features=3072, out_features=768, bias=True)
                                                     (LayerNorm): LayerNorm((768,), eps=1e-12, elementwise_affine=True)
                                                     (dropout): Dropout(p=0.1, inplace=False)
                                                     (adapter_fusion_layer): ModuleDict()
                                                     (layer_text_task_adapters): ModuleDict()
                                                     (layer_text_lang_adapters): ModuleDict()
                                                   )
                                                 )
                                                 (7): BertLayer(
                                                   (attention): BertAttention(
                                                     (self): BertSelfAttention(
                                                       (query): Linear(in_features=768, out_features=768, bias=True)
                                                       (key): Linear(in_features=768, out_features=768, bias=True)
                                                       (value): Linear(in_features=768, out_features=768, bias=True)
                                                       (dropout): Dropout(p=0.1, inplace=False)
                                                     )
                                                     (output): BertSelfOutput(
                                                       (dense): Linear(in_features=768, out_features=768, bias=True)
                                                       (LayerNorm): LayerNorm((768,), eps=1e-12, elementwise_affine=True)
                                                       (dropout): Dropout(p=0.1, inplace=False)
                                                       (attention_text_task_adapters): ModuleDict()
                                                       (adapter_fusion_layer): ModuleDict()
                                                       (attention_text_lang_adapters): ModuleDict()
                                                     )
                                                   )
                                                   (intermediate): BertIntermediate(
                                                     (dense): Linear(in_features=768, out_features=3072, bias=True)
                                                   )
                                                   (output): BertOutput(
                                                     (dense): Linear(in_features=3072, out_features=768, bias=True)
                                                     (LayerNorm): LayerNorm((768,), eps=1e-12, elementwise_affine=True)
                                                     (dropout): Dropout(p=0.1, inplace=False)
                                                     (adapter_fusion_layer): ModuleDict()
                                                     (layer_text_task_adapters): ModuleDict()
                                                     (layer_text_lang_adapters): ModuleDict()
                                                   )
                                                 )
                                                 (8): BertLayer(
                                                   (attention): BertAttention(
                                                     (self): BertSelfAttention(
                                                       (query): Linear(in_features=768, out_features=768, bias=True)
                                                       (key): Linear(in_features=768, out_features=768, bias=True)
                                                       (value): Linear(in_features=768, out_features=768, bias=True)
                                                       (dropout): Dropout(p=0.1, inplace=False)
                                                     )
                                                     (output): BertSelfOutput(
                                                       (dense): Linear(in_features=768, out_features=768, bias=True)
                                                       (LayerNorm): LayerNorm((768,), eps=1e-12, elementwise_affine=True)
                                                       (dropout): Dropout(p=0.1, inplace=False)
                                                       (attention_text_task_adapters): ModuleDict()
                                                       (adapter_fusion_layer): ModuleDict()
                                                       (attention_text_lang_adapters): ModuleDict()
                                                     )
                                                   )
                                                   (intermediate): BertIntermediate(
                                                     (dense): Linear(in_features=768, out_features=3072, bias=True)
                                                   )
                                                   (output): BertOutput(
                                                     (dense): Linear(in_features=3072, out_features=768, bias=True)
                                                     (LayerNorm): LayerNorm((768,), eps=1e-12, elementwise_affine=True)
                                                     (dropout): Dropout(p=0.1, inplace=False)
                                                     (adapter_fusion_layer): ModuleDict()
                                                     (layer_text_task_adapters): ModuleDict()
                                                     (layer_text_lang_adapters): ModuleDict()
                                                   )
                                                 )
                                                 (9): BertLayer(
                                                   (attention): BertAttention(
                                                     (self): BertSelfAttention(
                                                       (query): Linear(in_features=768, out_features=768, bias=True)
                                                       (key): Linear(in_features=768, out_features=768, bias=True)
                                                       (value): Linear(in_features=768, out_features=768, bias=True)
                                                       (dropout): Dropout(p=0.1, inplace=False)
                                                     )
                                                     (output): BertSelfOutput(
                                                       (dense): Linear(in_features=768, out_features=768, bias=True)
                                                       (LayerNorm): LayerNorm((768,), eps=1e-12, elementwise_affine=True)
                                                       (dropout): Dropout(p=0.1, inplace=False)
                                                       (attention_text_task_adapters): ModuleDict()
                                                       (adapter_fusion_layer): ModuleDict()
                                                       (attention_text_lang_adapters): ModuleDict()
                                                     )
                                                   )
                                                   (intermediate): BertIntermediate(
                                                     (dense): Linear(in_features=768, out_features=3072, bias=True)
                                                   )
                                                   (output): BertOutput(
                                                     (dense): Linear(in_features=3072, out_features=768, bias=True)
                                                     (LayerNorm): LayerNorm((768,), eps=1e-12, elementwise_affine=True)
                                                     (dropout): Dropout(p=0.1, inplace=False)
                                                     (adapter_fusion_layer): ModuleDict()
                                                     (layer_text_task_adapters): ModuleDict()
                                                     (layer_text_lang_adapters): ModuleDict()
                                                   )
                                                 )
                                                 (10): BertLayer(
                                                   (attention): BertAttention(
                                                     (self): BertSelfAttention(
                                                       (query): Linear(in_features=768, out_features=768, bias=True)
                                                       (key): Linear(in_features=768, out_features=768, bias=True)
                                                       (value): Linear(in_features=768, out_features=768, bias=True)
                                                       (dropout): Dropout(p=0.1, inplace=False)
                                                     )
                                                     (output): BertSelfOutput(
                                                       (dense): Linear(in_features=768, out_features=768, bias=True)
                                                       (LayerNorm): LayerNorm((768,), eps=1e-12, elementwise_affine=True)
                                                       (dropout): Dropout(p=0.1, inplace=False)
                                                       (attention_text_task_adapters): ModuleDict()
                                                       (adapter_fusion_layer): ModuleDict()
                                                       (attention_text_lang_adapters): ModuleDict()
                                                     )
                                                   )
                                                   (intermediate): BertIntermediate(
                                                     (dense): Linear(in_features=768, out_features=3072, bias=True)
                                                   )
                                                   (output): BertOutput(
                                                     (dense): Linear(in_features=3072, out_features=768, bias=True)
                                                     (LayerNorm): LayerNorm((768,), eps=1e-12, elementwise_affine=True)
                                                     (dropout): Dropout(p=0.1, inplace=False)
                                                     (adapter_fusion_layer): ModuleDict()
                                                     (layer_text_task_adapters): ModuleDict()
                                                     (layer_text_lang_adapters): ModuleDict()
                                                   )
                                                 )
                                                 (11): BertLayer(
                                                   (attention): BertAttention(
                                                     (self): BertSelfAttention(
                                                       (query): Linear(in_features=768, out_features=768, bias=True)
                                                       (key): Linear(in_features=768, out_features=768, bias=True)
                                                       (value): Linear(in_features=768, out_features=768, bias=True)
                                                       (dropout): Dropout(p=0.1, inplace=False)
                                                     )
                                                     (output): BertSelfOutput(
                                                       (dense): Linear(in_features=768, out_features=768, bias=True)
                                                       (LayerNorm): LayerNorm((768,), eps=1e-12, elementwise_affine=True)
                                                       (dropout): Dropout(p=0.1, inplace=False)
                                                       (attention_text_task_adapters): ModuleDict()
                                                       (adapter_fusion_layer): ModuleDict()
                                                       (attention_text_lang_adapters): ModuleDict()
                                                     )
                                                   )
                                                   (intermediate): BertIntermediate(
                                                     (dense): Linear(in_features=768, out_features=3072, bias=True)
                                                   )
                                                   (output): BertOutput(
                                                     (dense): Linear(in_features=3072, out_features=768, bias=True)
                                                     (LayerNorm): LayerNorm((768,), eps=1e-12, elementwise_affine=True)
                                                     (dropout): Dropout(p=0.1, inplace=False)
                                                     (adapter_fusion_layer): ModuleDict()
                                                     (layer_text_task_adapters): ModuleDict()
                                                     (layer_text_lang_adapters): ModuleDict()
                                                   )
                                                 )
                                               )
                                             )
                                             (pooler): BertPooler(
                                               (dense): Linear(in_features=768, out_features=768, bias=True)
                                               (activation): Tanh()
                                             )
                                             (invertible_lang_adapters): ModuleDict()
                                           )
                                         )
                                         (audio_enc): AudioEncoder(
                                           (conv_layers): ModuleList(
                                             (0): Conv1d(96, 96, kernel_size=(128,), stride=(2,))
                                             (1): Conv1d(96, 96, kernel_size=(128,), stride=(2,))
                                             (2): AdaptiveAvgPool1d(output_size=200)
                                           )
                                         )
                                         (proj_poster): Linear(in_features=4096, out_features=768, bias=False)
                                         (proj2_poster): Linear(in_features=4096, out_features=768, bias=False)
                                         (proj_l_e): Linear(in_features=768, out_features=768, bias=False)
                                         (proj_v_e): Linear(in_features=4096, out_features=768, bias=False)
                                         (proj_a_e): Linear(in_features=96, out_features=768, bias=False)
                                         (proj_l): Conv1d(768, 768, kernel_size=(1,), stride=(1,), bias=False)
                                         (proj_v): Conv1d(4096, 768, kernel_size=(1,), stride=(1,), bias=False)
                                         (proj_a): Conv1d(96, 768, kernel_size=(1,), stride=(1,), bias=False)
                                         (trans_l_with_a): TransformerEncoder(
                                           (embed_positions): SinusoidalPositionalEmbedding()
                                           (layers): ModuleList(
                                             (0): TransformerEncoderLayer(
                                               (self_attn): MultiheadAttention(
                                                 (out_proj): Linear(in_features=768, out_features=768, bias=True)
                                               )
                                               (fc1): Linear(in_features=768, out_features=3072, bias=True)
                                               (fc2): Linear(in_features=3072, out_features=768, bias=True)
                                               (layer_norms): ModuleList(
                                                 (0): LayerNorm((768,), eps=1e-05, elementwise_affine=True)
                                                 (1): LayerNorm((768,), eps=1e-05, elementwise_affine=True)
                                               )
                                             )
                                             (1): TransformerEncoderLayer(
                                               (self_attn): MultiheadAttention(
                                                 (out_proj): Linear(in_features=768, out_features=768, bias=True)
                                               )
                                               (fc1): Linear(in_features=768, out_features=3072, bias=True)
                                               (fc2): Linear(in_features=3072, out_features=768, bias=True)
                                               (layer_norms): ModuleList(
                                                 (0): LayerNorm((768,), eps=1e-05, elementwise_affine=True)
                                                 (1): LayerNorm((768,), eps=1e-05, elementwise_affine=True)
                                               )
                                             )
                                             (2): TransformerEncoderLayer(
                                               (self_attn): MultiheadAttention(
                                                 (out_proj): Linear(in_features=768, out_features=768, bias=True)
                                               )
                                               (fc1): Linear(in_features=768, out_features=3072, bias=True)
                                               (fc2): Linear(in_features=3072, out_features=768, bias=True)
                                               (layer_norms): ModuleList(
                                                 (0): LayerNorm((768,), eps=1e-05, elementwise_affine=True)
                                                 (1): LayerNorm((768,), eps=1e-05, elementwise_affine=True)
                                               )
                                             )
                                             (3): TransformerEncoderLayer(
                                               (self_attn): MultiheadAttention(
                                                 (out_proj): Linear(in_features=768, out_features=768, bias=True)
                                               )
                                               (fc1): Linear(in_features=768, out_features=3072, bias=True)
                                               (fc2): Linear(in_features=3072, out_features=768, bias=True)
                                               (layer_norms): ModuleList(
                                                 (0): LayerNorm((768,), eps=1e-05, elementwise_affine=True)
                                                 (1): LayerNorm((768,), eps=1e-05, elementwise_affine=True)
                                               )
                                             )
                                             (4): TransformerEncoderLayer(
                                               (self_attn): MultiheadAttention(
                                                 (out_proj): Linear(in_features=768, out_features=768, bias=True)
                                               )
                                               (fc1): Linear(in_features=768, out_features=3072, bias=True)
                                               (fc2): Linear(in_features=3072, out_features=768, bias=True)
                                               (layer_norms): ModuleList(
                                                 (0): LayerNorm((768,), eps=1e-05, elementwise_affine=True)
                                                 (1): LayerNorm((768,), eps=1e-05, elementwise_affine=True)
                                               )
                                             )
                                           )
                                           (layer_norm): LayerNorm((768,), eps=1e-05, elementwise_affine=True)
                                         )
                                         (trans_l_with_v): TransformerEncoder(
                                           (embed_positions): SinusoidalPositionalEmbedding()
                                           (layers): ModuleList(
                                             (0): TransformerEncoderLayer(
                                               (self_attn): MultiheadAttention(
                                                 (out_proj): Linear(in_features=768, out_features=768, bias=True)
                                               )
                                               (fc1): Linear(in_features=768, out_features=3072, bias=True)
                                               (fc2): Linear(in_features=3072, out_features=768, bias=True)
                                               (layer_norms): ModuleList(
                                                 (0): LayerNorm((768,), eps=1e-05, elementwise_affine=True)
                                                 (1): LayerNorm((768,), eps=1e-05, elementwise_affine=True)
                                               )
                                             )
                                             (1): TransformerEncoderLayer(
                                               (self_attn): MultiheadAttention(
                                                 (out_proj): Linear(in_features=768, out_features=768, bias=True)
                                               )
                                               (fc1): Linear(in_features=768, out_features=3072, bias=True)
                                               (fc2): Linear(in_features=3072, out_features=768, bias=True)
                                               (layer_norms): ModuleList(
                                                 (0): LayerNorm((768,), eps=1e-05, elementwise_affine=True)
                                                 (1): LayerNorm((768,), eps=1e-05, elementwise_affine=True)
                                               )
                                             )
                                             (2): TransformerEncoderLayer(
                                               (self_attn): MultiheadAttention(
                                                 (out_proj): Linear(in_features=768, out_features=768, bias=True)
                                               )
                                               (fc1): Linear(in_features=768, out_features=3072, bias=True)
                                               (fc2): Linear(in_features=3072, out_features=768, bias=True)
                                               (layer_norms): ModuleList(
                                                 (0): LayerNorm((768,), eps=1e-05, elementwise_affine=True)
                                                 (1): LayerNorm((768,), eps=1e-05, elementwise_affine=True)
                                               )
                                             )
                                             (3): TransformerEncoderLayer(
                                               (self_attn): MultiheadAttention(
                                                 (out_proj): Linear(in_features=768, out_features=768, bias=True)
                                               )
                                               (fc1): Linear(in_features=768, out_features=3072, bias=True)
                                               (fc2): Linear(in_features=3072, out_features=768, bias=True)
                                               (layer_norms): ModuleList(
                                                 (0): LayerNorm((768,), eps=1e-05, elementwise_affine=True)
                                                 (1): LayerNorm((768,), eps=1e-05, elementwise_affine=True)
                                               )
                                             )
                                             (4): TransformerEncoderLayer(
                                               (self_attn): MultiheadAttention(
                                                 (out_proj): Linear(in_features=768, out_features=768, bias=True)
                                               )
                                               (fc1): Linear(in_features=768, out_features=3072, bias=True)
                                               (fc2): Linear(in_features=3072, out_features=768, bias=True)
                                               (layer_norms): ModuleList(
                                                 (0): LayerNorm((768,), eps=1e-05, elementwise_affine=True)
                                                 (1): LayerNorm((768,), eps=1e-05, elementwise_affine=True)
                                               )
                                             )
                                           )
                                           (layer_norm): LayerNorm((768,), eps=1e-05, elementwise_affine=True)
                                         )
                                         (trans_v_with_l): TransformerEncoder(
                                           (embed_positions): SinusoidalPositionalEmbedding()
                                           (layers): ModuleList(
                                             (0): TransformerEncoderLayer(
                                               (self_attn): MultiheadAttention(
                                                 (out_proj): Linear(in_features=768, out_features=768, bias=True)
                                               )
                                               (fc1): Linear(in_features=768, out_features=3072, bias=True)
                                               (fc2): Linear(in_features=3072, out_features=768, bias=True)
                                               (layer_norms): ModuleList(
                                                 (0): LayerNorm((768,), eps=1e-05, elementwise_affine=True)
                                                 (1): LayerNorm((768,), eps=1e-05, elementwise_affine=True)
                                               )
                                             )
                                             (1): TransformerEncoderLayer(
                                               (self_attn): MultiheadAttention(
                                                 (out_proj): Linear(in_features=768, out_features=768, bias=True)
                                               )
                                               (fc1): Linear(in_features=768, out_features=3072, bias=True)
                                               (fc2): Linear(in_features=3072, out_features=768, bias=True)
                                               (layer_norms): ModuleList(
                                                 (0): LayerNorm((768,), eps=1e-05, elementwise_affine=True)
                                                 (1): LayerNorm((768,), eps=1e-05, elementwise_affine=True)
                                               )
                                             )
                                             (2): TransformerEncoderLayer(
                                               (self_attn): MultiheadAttention(
                                                 (out_proj): Linear(in_features=768, out_features=768, bias=True)
                                               )
                                               (fc1): Linear(in_features=768, out_features=3072, bias=True)
                                               (fc2): Linear(in_features=3072, out_features=768, bias=True)
                                               (layer_norms): ModuleList(
                                                 (0): LayerNorm((768,), eps=1e-05, elementwise_affine=True)
                                                 (1): LayerNorm((768,), eps=1e-05, elementwise_affine=True)
                                               )
                                             )
                                             (3): TransformerEncoderLayer(
                                               (self_attn): MultiheadAttention(
                                                 (out_proj): Linear(in_features=768, out_features=768, bias=True)
                                               )
                                               (fc1): Linear(in_features=768, out_features=3072, bias=True)
                                               (fc2): Linear(in_features=3072, out_features=768, bias=True)
                                               (layer_norms): ModuleList(
                                                 (0): LayerNorm((768,), eps=1e-05, elementwise_affine=True)
                                                 (1): LayerNorm((768,), eps=1e-05, elementwise_affine=True)
                                               )
                                             )
                                             (4): TransformerEncoderLayer(
                                               (self_attn): MultiheadAttention(
                                                 (out_proj): Linear(in_features=768, out_features=768, bias=True)
                                               )
                                               (fc1): Linear(in_features=768, out_features=3072, bias=True)
                                               (fc2): Linear(in_features=3072, out_features=768, bias=True)
                                               (layer_norms): ModuleList(
                                                 (0): LayerNorm((768,), eps=1e-05, elementwise_affine=True)
                                                 (1): LayerNorm((768,), eps=1e-05, elementwise_affine=True)
                                               )
                                             )
                                           )
                                           (layer_norm): LayerNorm((768,), eps=1e-05, elementwise_affine=True)
                                         )
                                         (trans_v_with_a): TransformerEncoder(
                                           (embed_positions): SinusoidalPositionalEmbedding()
                                           (layers): ModuleList(
                                             (0): TransformerEncoderLayer(
                                               (self_attn): MultiheadAttention(
                                                 (out_proj): Linear(in_features=768, out_features=768, bias=True)
                                               )
                                               (fc1): Linear(in_features=768, out_features=3072, bias=True)
                                               (fc2): Linear(in_features=3072, out_features=768, bias=True)
                                               (layer_norms): ModuleList(
                                                 (0): LayerNorm((768,), eps=1e-05, elementwise_affine=True)
                                                 (1): LayerNorm((768,), eps=1e-05, elementwise_affine=True)
                                               )
                                             )
                                             (1): TransformerEncoderLayer(
                                               (self_attn): MultiheadAttention(
                                                 (out_proj): Linear(in_features=768, out_features=768, bias=True)
                                               )
                                               (fc1): Linear(in_features=768, out_features=3072, bias=True)
                                               (fc2): Linear(in_features=3072, out_features=768, bias=True)
                                               (layer_norms): ModuleList(
                                                 (0): LayerNorm((768,), eps=1e-05, elementwise_affine=True)
                                                 (1): LayerNorm((768,), eps=1e-05, elementwise_affine=True)
                                               )
                                             )
                                             (2): TransformerEncoderLayer(
                                               (self_attn): MultiheadAttention(
                                                 (out_proj): Linear(in_features=768, out_features=768, bias=True)
                                               )
                                               (fc1): Linear(in_features=768, out_features=3072, bias=True)
                                               (fc2): Linear(in_features=3072, out_features=768, bias=True)
                                               (layer_norms): ModuleList(
                                                 (0): LayerNorm((768,), eps=1e-05, elementwise_affine=True)
                                                 (1): LayerNorm((768,), eps=1e-05, elementwise_affine=True)
                                               )
                                             )
                                             (3): TransformerEncoderLayer(
                                               (self_attn): MultiheadAttention(
                                                 (out_proj): Linear(in_features=768, out_features=768, bias=True)
                                               )
                                               (fc1): Linear(in_features=768, out_features=3072, bias=True)
                                               (fc2): Linear(in_features=3072, out_features=768, bias=True)
                                               (layer_norms): ModuleList(
                                                 (0): LayerNorm((768,), eps=1e-05, elementwise_affine=True)
                                                 (1): LayerNorm((768,), eps=1e-05, elementwise_affine=True)
                                               )
                                             )
                                             (4): TransformerEncoderLayer(
                                               (self_attn): MultiheadAttention(
                                                 (out_proj): Linear(in_features=768, out_features=768, bias=True)
                                               )
                                               (fc1): Linear(in_features=768, out_features=3072, bias=True)
                                               (fc2): Linear(in_features=3072, out_features=768, bias=True)
                                               (layer_norms): ModuleList(
                                                 (0): LayerNorm((768,), eps=1e-05, elementwise_affine=True)
                                                 (1): LayerNorm((768,), eps=1e-05, elementwise_affine=True)
                                               )
                                             )
                                           )
                                           (layer_norm): LayerNorm((768,), eps=1e-05, elementwise_affine=True)
                                         )
                                         (trans_a_with_l): TransformerEncoder(
                                           (embed_positions): SinusoidalPositionalEmbedding()
                                           (layers): ModuleList(
                                             (0): TransformerEncoderLayer(
                                               (self_attn): MultiheadAttention(
                                                 (out_proj): Linear(in_features=768, out_features=768, bias=True)
                                               )
                                               (fc1): Linear(in_features=768, out_features=3072, bias=True)
                                               (fc2): Linear(in_features=3072, out_features=768, bias=True)
                                               (layer_norms): ModuleList(
                                                 (0): LayerNorm((768,), eps=1e-05, elementwise_affine=True)
                                                 (1): LayerNorm((768,), eps=1e-05, elementwise_affine=True)
                                               )
                                             )
                                             (1): TransformerEncoderLayer(
                                               (self_attn): MultiheadAttention(
                                                 (out_proj): Linear(in_features=768, out_features=768, bias=True)
                                               )
                                               (fc1): Linear(in_features=768, out_features=3072, bias=True)
                                               (fc2): Linear(in_features=3072, out_features=768, bias=True)
                                               (layer_norms): ModuleList(
                                                 (0): LayerNorm((768,), eps=1e-05, elementwise_affine=True)
                                                 (1): LayerNorm((768,), eps=1e-05, elementwise_affine=True)
                                               )
                                             )
                                             (2): TransformerEncoderLayer(
                                               (self_attn): MultiheadAttention(
                                                 (out_proj): Linear(in_features=768, out_features=768, bias=True)
                                               )
                                               (fc1): Linear(in_features=768, out_features=3072, bias=True)
                                               (fc2): Linear(in_features=3072, out_features=768, bias=True)
                                               (layer_norms): ModuleList(
                                                 (0): LayerNorm((768,), eps=1e-05, elementwise_affine=True)
                                                 (1): LayerNorm((768,), eps=1e-05, elementwise_affine=True)
                                               )
                                             )
                                             (3): TransformerEncoderLayer(
                                               (self_attn): MultiheadAttention(
                                                 (out_proj): Linear(in_features=768, out_features=768, bias=True)
                                               )
                                               (fc1): Linear(in_features=768, out_features=3072, bias=True)
                                               (fc2): Linear(in_features=3072, out_features=768, bias=True)
                                               (layer_norms): ModuleList(
                                                 (0): LayerNorm((768,), eps=1e-05, elementwise_affine=True)
                                                 (1): LayerNorm((768,), eps=1e-05, elementwise_affine=True)
                                               )
                                             )
                                             (4): TransformerEncoderLayer(
                                               (self_attn): MultiheadAttention(
                                                 (out_proj): Linear(in_features=768, out_features=768, bias=True)
                                               )
                                               (fc1): Linear(in_features=768, out_features=3072, bias=True)
                                               (fc2): Linear(in_features=3072, out_features=768, bias=True)
                                               (layer_norms): ModuleList(
                                                 (0): LayerNorm((768,), eps=1e-05, elementwise_affine=True)
                                                 (1): LayerNorm((768,), eps=1e-05, elementwise_affine=True)
                                               )
                                             )
                                           )
                                           (layer_norm): LayerNorm((768,), eps=1e-05, elementwise_affine=True)
                                         )
                                         (trans_a_with_v): TransformerEncoder(
                                           (embed_positions): SinusoidalPositionalEmbedding()
                                           (layers): ModuleList(
                                             (0): TransformerEncoderLayer(
                                               (self_attn): MultiheadAttention(
                                                 (out_proj): Linear(in_features=768, out_features=768, bias=True)
                                               )
                                               (fc1): Linear(in_features=768, out_features=3072, bias=True)
                                               (fc2): Linear(in_features=3072, out_features=768, bias=True)
                                               (layer_norms): ModuleList(
                                                 (0): LayerNorm((768,), eps=1e-05, elementwise_affine=True)
                                                 (1): LayerNorm((768,), eps=1e-05, elementwise_affine=True)
                                               )
                                             )
                                             (1): TransformerEncoderLayer(
                                               (self_attn): MultiheadAttention(
                                                 (out_proj): Linear(in_features=768, out_features=768, bias=True)
                                               )
                                               (fc1): Linear(in_features=768, out_features=3072, bias=True)
                                               (fc2): Linear(in_features=3072, out_features=768, bias=True)
                                               (layer_norms): ModuleList(
                                                 (0): LayerNorm((768,), eps=1e-05, elementwise_affine=True)
                                                 (1): LayerNorm((768,), eps=1e-05, elementwise_affine=True)
                                               )
                                             )
                                             (2): TransformerEncoderLayer(
                                               (self_attn): MultiheadAttention(
                                                 (out_proj): Linear(in_features=768, out_features=768, bias=True)
                                               )
                                               (fc1): Linear(in_features=768, out_features=3072, bias=True)
                                               (fc2): Linear(in_features=3072, out_features=768, bias=True)
                                               (layer_norms): ModuleList(
                                                 (0): LayerNorm((768,), eps=1e-05, elementwise_affine=True)
                                                 (1): LayerNorm((768,), eps=1e-05, elementwise_affine=True)
                                               )
                                             )
                                             (3): TransformerEncoderLayer(
                                               (self_attn): MultiheadAttention(
                                                 (out_proj): Linear(in_features=768, out_features=768, bias=True)
                                               )
                                               (fc1): Linear(in_features=768, out_features=3072, bias=True)
                                               (fc2): Linear(in_features=3072, out_features=768, bias=True)
                                               (layer_norms): ModuleList(
                                                 (0): LayerNorm((768,), eps=1e-05, elementwise_affine=True)
                                                 (1): LayerNorm((768,), eps=1e-05, elementwise_affine=True)
                                               )
                                             )
                                             (4): TransformerEncoderLayer(
                                               (self_attn): MultiheadAttention(
                                                 (out_proj): Linear(in_features=768, out_features=768, bias=True)
                                               )
                                               (fc1): Linear(in_features=768, out_features=3072, bias=True)
                                               (fc2): Linear(in_features=3072, out_features=768, bias=True)
                                               (layer_norms): ModuleList(
                                                 (0): LayerNorm((768,), eps=1e-05, elementwise_affine=True)
                                                 (1): LayerNorm((768,), eps=1e-05, elementwise_affine=True)
                                               )
                                             )
                                           )
                                           (layer_norm): LayerNorm((768,), eps=1e-05, elementwise_affine=True)
                                         )
                                         (trans_l_mem): TransformerEncoder(
                                           (embed_positions): SinusoidalPositionalEmbedding()
                                           (layers): ModuleList(
                                             (0): TransformerEncoderLayer(
                                               (self_attn): MultiheadAttention(
                                                 (out_proj): Linear(in_features=1536, out_features=1536, bias=True)
                                               )
                                               (fc1): Linear(in_features=1536, out_features=6144, bias=True)
                                               (fc2): Linear(in_features=6144, out_features=1536, bias=True)
                                               (layer_norms): ModuleList(
                                                 (0): LayerNorm((1536,), eps=1e-05, elementwise_affine=True)
                                                 (1): LayerNorm((1536,), eps=1e-05, elementwise_affine=True)
                                               )
                                             )
                                             (1): TransformerEncoderLayer(
                                               (self_attn): MultiheadAttention(
                                                 (out_proj): Linear(in_features=1536, out_features=1536, bias=True)
                                               )
                                               (fc1): Linear(in_features=1536, out_features=6144, bias=True)
                                               (fc2): Linear(in_features=6144, out_features=1536, bias=True)
                                               (layer_norms): ModuleList(
                                                 (0): LayerNorm((1536,), eps=1e-05, elementwise_affine=True)
                                                 (1): LayerNorm((1536,), eps=1e-05, elementwise_affine=True)
                                               )
                                             )
                                             (2): TransformerEncoderLayer(
                                               (self_attn): MultiheadAttention(
                                                 (out_proj): Linear(in_features=1536, out_features=1536, bias=True)
                                               )
                                               (fc1): Linear(in_features=1536, out_features=6144, bias=True)
                                               (fc2): Linear(in_features=6144, out_features=1536, bias=True)
                                               (layer_norms): ModuleList(
                                                 (0): LayerNorm((1536,), eps=1e-05, elementwise_affine=True)
                                                 (1): LayerNorm((1536,), eps=1e-05, elementwise_affine=True)
                                               )
                                             )
                                             (3): TransformerEncoderLayer(
                                               (self_attn): MultiheadAttention(
                                                 (out_proj): Linear(in_features=1536, out_features=1536, bias=True)
                                               )
                                               (fc1): Linear(in_features=1536, out_features=6144, bias=True)
                                               (fc2): Linear(in_features=6144, out_features=1536, bias=True)
                                               (layer_norms): ModuleList(
                                                 (0): LayerNorm((1536,), eps=1e-05, elementwise_affine=True)
                                                 (1): LayerNorm((1536,), eps=1e-05, elementwise_affine=True)
                                               )
                                             )
                                             (4): TransformerEncoderLayer(
                                               (self_attn): MultiheadAttention(
                                                 (out_proj): Linear(in_features=1536, out_features=1536, bias=True)
                                               )
                                               (fc1): Linear(in_features=1536, out_features=6144, bias=True)
                                               (fc2): Linear(in_features=6144, out_features=1536, bias=True)
                                               (layer_norms): ModuleList(
                                                 (0): LayerNorm((1536,), eps=1e-05, elementwise_affine=True)
                                                 (1): LayerNorm((1536,), eps=1e-05, elementwise_affine=True)
                                               )
                                             )
                                           )
                                           (layer_norm): LayerNorm((1536,), eps=1e-05, elementwise_affine=True)
                                         )
                                         (trans_v_mem): TransformerEncoder(
                                           (embed_positions): SinusoidalPositionalEmbedding()
                                           (layers): ModuleList(
                                             (0): TransformerEncoderLayer(
                                               (self_attn): MultiheadAttention(
                                                 (out_proj): Linear(in_features=1536, out_features=1536, bias=True)
                                               )
                                               (fc1): Linear(in_features=1536, out_features=6144, bias=True)
                                               (fc2): Linear(in_features=6144, out_features=1536, bias=True)
                                               (layer_norms): ModuleList(
                                                 (0): LayerNorm((1536,), eps=1e-05, elementwise_affine=True)
                                                 (1): LayerNorm((1536,), eps=1e-05, elementwise_affine=True)
                                               )
                                             )
                                             (1): TransformerEncoderLayer(
                                               (self_attn): MultiheadAttention(
                                                 (out_proj): Linear(in_features=1536, out_features=1536, bias=True)
                                               )
                                               (fc1): Linear(in_features=1536, out_features=6144, bias=True)
                                               (fc2): Linear(in_features=6144, out_features=1536, bias=True)
                                               (layer_norms): ModuleList(
                                                 (0): LayerNorm((1536,), eps=1e-05, elementwise_affine=True)
                                                 (1): LayerNorm((1536,), eps=1e-05, elementwise_affine=True)
                                               )
                                             )
                                             (2): TransformerEncoderLayer(
                                               (self_attn): MultiheadAttention(
                                                 (out_proj): Linear(in_features=1536, out_features=1536, bias=True)
                                               )
                                               (fc1): Linear(in_features=1536, out_features=6144, bias=True)
                                               (fc2): Linear(in_features=6144, out_features=1536, bias=True)
                                               (layer_norms): ModuleList(
                                                 (0): LayerNorm((1536,), eps=1e-05, elementwise_affine=True)
                                                 (1): LayerNorm((1536,), eps=1e-05, elementwise_affine=True)
                                               )
                                             )
                                             (3): TransformerEncoderLayer(
                                               (self_attn): MultiheadAttention(
                                                 (out_proj): Linear(in_features=1536, out_features=1536, bias=True)
                                               )
                                               (fc1): Linear(in_features=1536, out_features=6144, bias=True)
                                               (fc2): Linear(in_features=6144, out_features=1536, bias=True)
                                               (layer_norms): ModuleList(
                                                 (0): LayerNorm((1536,), eps=1e-05, elementwise_affine=True)
                                                 (1): LayerNorm((1536,), eps=1e-05, elementwise_affine=True)
                                               )
                                             )
                                             (4): TransformerEncoderLayer(
                                               (self_attn): MultiheadAttention(
                                                 (out_proj): Linear(in_features=1536, out_features=1536, bias=True)
                                               )
                                               (fc1): Linear(in_features=1536, out_features=6144, bias=True)
                                               (fc2): Linear(in_features=6144, out_features=1536, bias=True)
                                               (layer_norms): ModuleList(
                                                 (0): LayerNorm((1536,), eps=1e-05, elementwise_affine=True)
                                                 (1): LayerNorm((1536,), eps=1e-05, elementwise_affine=True)
                                               )
                                             )
                                           )
                                           (layer_norm): LayerNorm((1536,), eps=1e-05, elementwise_affine=True)
                                         )
                                         (trans_a_mem): TransformerEncoder(
                                           (embed_positions): SinusoidalPositionalEmbedding()
                                           (layers): ModuleList(
                                             (0): TransformerEncoderLayer(
                                               (self_attn): MultiheadAttention(
                                                 (out_proj): Linear(in_features=1536, out_features=1536, bias=True)
                                               )
                                               (fc1): Linear(in_features=1536, out_features=6144, bias=True)
                                               (fc2): Linear(in_features=6144, out_features=1536, bias=True)
                                               (layer_norms): ModuleList(
                                                 (0): LayerNorm((1536,), eps=1e-05, elementwise_affine=True)
                                                 (1): LayerNorm((1536,), eps=1e-05, elementwise_affine=True)
                                               )
                                             )
                                             (1): TransformerEncoderLayer(
                                               (self_attn): MultiheadAttention(
                                                 (out_proj): Linear(in_features=1536, out_features=1536, bias=True)
                                               )
                                               (fc1): Linear(in_features=1536, out_features=6144, bias=True)
                                               (fc2): Linear(in_features=6144, out_features=1536, bias=True)
                                               (layer_norms): ModuleList(
                                                 (0): LayerNorm((1536,), eps=1e-05, elementwise_affine=True)
                                                 (1): LayerNorm((1536,), eps=1e-05, elementwise_affine=True)
                                               )
                                             )
                                             (2): TransformerEncoderLayer(
                                               (self_attn): MultiheadAttention(
                                                 (out_proj): Linear(in_features=1536, out_features=1536, bias=True)
                                               )
                                               (fc1): Linear(in_features=1536, out_features=6144, bias=True)
                                               (fc2): Linear(in_features=6144, out_features=1536, bias=True)
                                               (layer_norms): ModuleList(
                                                 (0): LayerNorm((1536,), eps=1e-05, elementwise_affine=True)
                                                 (1): LayerNorm((1536,), eps=1e-05, elementwise_affine=True)
                                               )
                                             )
                                             (3): TransformerEncoderLayer(
                                               (self_attn): MultiheadAttention(
                                                 (out_proj): Linear(in_features=1536, out_features=1536, bias=True)
                                               )
                                               (fc1): Linear(in_features=1536, out_features=6144, bias=True)
                                               (fc2): Linear(in_features=6144, out_features=1536, bias=True)
                                               (layer_norms): ModuleList(
                                                 (0): LayerNorm((1536,), eps=1e-05, elementwise_affine=True)
                                                 (1): LayerNorm((1536,), eps=1e-05, elementwise_affine=True)
                                               )
                                             )
                                             (4): TransformerEncoderLayer(
                                               (self_attn): MultiheadAttention(
                                                 (out_proj): Linear(in_features=1536, out_features=1536, bias=True)
                                               )
                                               (fc1): Linear(in_features=1536, out_features=6144, bias=True)
                                               (fc2): Linear(in_features=6144, out_features=1536, bias=True)
                                               (layer_norms): ModuleList(
                                                 (0): LayerNorm((1536,), eps=1e-05, elementwise_affine=True)
                                                 (1): LayerNorm((1536,), eps=1e-05, elementwise_affine=True)
                                               )
                                             )
                                           )
                                           (layer_norm): LayerNorm((1536,), eps=1e-05, elementwise_affine=True)
                                         )
                                         (proj1): Linear(in_features=768, out_features=768, bias=True)
                                         (proj2): Linear(in_features=768, out_features=768, bias=True)
                                         (out_layer): Linear(in_features=768, out_features=13, bias=True)
                                         (proj12): Linear(in_features=768, out_features=768, bias=True)
                                         (proj22): Linear(in_features=768, out_features=768, bias=True)
                                         (out_layer2): Linear(in_features=768, out_features=13, bias=True)
                                         (out_layer_final): Linear(in_features=13, out_features=13, bias=True)
                                         (gmu): TextShifting5Layer(
                                           (hidden1): Linear(in_features=1536, out_features=768, bias=False)
                                           (hidden2): Linear(in_features=1536, out_features=768, bias=False)
                                           (hidden3): Linear(in_features=1536, out_features=768, bias=False)
                                           (hidden4): Linear(in_features=768, out_features=768, bias=False)
                                           (hidden5): Linear(in_features=768, out_features=768, bias=False)
                                           (x1_gate): Linear(in_features=6144, out_features=768, bias=False)
                                           (x2_gate): Linear(in_features=6144, out_features=768, bias=False)
                                           (x3_gate): Linear(in_features=6144, out_features=768, bias=False)
                                           (x4_gate): Linear(in_features=6144, out_features=768, bias=False)
                                           (x5_gate): Linear(in_features=6144, out_features=768, bias=False)
                                         )
                                         (gmuSimple): TextShifting4LayerSimple(
                                           (hidden1): Linear(in_features=768, out_features=768, bias=False)
                                           (hidden2): Linear(in_features=768, out_features=768, bias=False)
                                           (hidden3): Linear(in_features=768, out_features=768, bias=False)
                                           (hidden4): Linear(in_features=768, out_features=768, bias=False)
                                           (x1_gate): Linear(in_features=768, out_features=768, bias=False)
                                           (x2_gate): Linear(in_features=768, out_features=768, bias=False)
                                           (x3_gate): Linear(in_features=768, out_features=768, bias=False)
                                           (x4_gate): Linear(in_features=768, out_features=768, bias=False)
                                         )
                                       )
                                     )
INFO - 09/07/21 23:30:38 - 0:00:01 - Training..
INFO - 09/07/21 23:38:44 - 0:00:00 - a_len: 3
                                     adapter_size: 64
                                     aonly: True
                                     attn_dropout: 0.1
…
